defended_model_regularization.pth (torch, 253987 bytes, 18 tensors)

conv1.weight f4 [6, 1, 3, 3]
-0.19860932 -0.086399205 0.11369497 0.10753414 0.23243538 0.08128771 0.05823523 -0.00390686
-0.20387043 0.09497812 0.15347512 0.24614348 -0.13644098 -0.083140254 -0.090969175 -0.16232207
-0.059840605 -0.011955692 0.06853469 -0.04742002 0.005642347 0.05318078 0.016977044 -0.21007107
0.19893222 -0.00010097776 -0.12461467 -0.24143966 0.12674838 0.0106463265 -0.1369859 0.074122764
0.108872905 -0.12688698 -0.08498856 0.029916212 -0.124728434 -0.22156075 -0.17509136 0.12704523
0.12868811 -0.1639706 -0.042197052 0.10367699 0.025286905 0.059600063 0.14867373 -0.21271369
0.03247072 0.14159934 -0.03733667 -0.098590456 0.09716372 0.13534354
00000000: 3e60 4bbe 11f2 b0bd e9d8 e83d dc3a dc3d
00000010: 8a03 6e3e 2c7a a63d 1188 6e3d 1e05 80bb
00000020: 69c3 50be e383 c23d 9528 1d3e 090d 7c3e
00000030: 2fb7 0bbe 7045 aabd 0c4e babd c237 26be
00000040: 6c1b 75bd cfe1 43bc ea5b 8c3d 7f3b 42bd
00000050: 70e3 b83b 17d4 593d 7113 8b3c df1c 57be
00000060: e3b4 4b3e 06c4 d3b8 fa35 ffbd f53b 77be
00000070: 54ca 013e ee6d 2e3c 0846 0cbe adcd 973d
00000080: c2f8 de3d a9ee 01be 7b0e aebd d812 f53c
00000090: 9f71 ffbd d2e0 62be 264b 33be 2518 023e
000000a0: d1c6 033e e9e7 27be d1d6 2cbd 9a54 d43d
000000b0: 7c26 cf3c 321f 743d ed3d 183e 9ed1 59be
000000c0: 0500 053d 6bff 103e 56ee 18bd cbe9 c9bd
000000d0: c6fd c63d 7f97 0a3e

conv1.bias f4 [6]
0.00018676749 0.00056932215 0.00045603214 -4.8095913e-05 0.0018520048 -0.0004478873
00000000: 04d7 4339 903e 153a 9917 ef39 98ba 49b8
00000010: f8be f23a 6ad2 eab9

bn1.weight f4 [6]
0.28507373 0.35963365 0.3041369 0.44809738 0.58191574 0.33102104
00000000: 2ff5 913e e721 b83e d5b7 9b3e 056d e53e
00000010: 6ef8 143f 977b a93e

bn1.bias f4 [6]
-0.1926798 -0.18325564 -0.033101365 -0.105263114 -0.15128408 -0.46269986
00000000: da4d 45be 5ea7 3bbe 4c95 07bd 3094 d7bd
00000010: 37ea 1abe ffe6 ecbe

bn1.running_mean f4 [6]
-0.005969996 0.0031187502 0.0018468027 -0.009101268 -0.010947745 -0.00031260127
00000000: f59f c3bb f263 4c3b 6a10 f23a 7c1d 15bc
00000010: 2c5e 33bc a2e4 a3b9

bn1.running_var f4 [6]
0.06164225 0.10887249 0.083410636 0.10284503 0.14087528 0.07515716
00000000: 957c 7c3d 8af8 de3d 32d3 aa3d 6aa0 d23d
00000010: 9c41 103e ffeb 993d

conv2.weight f4 [16, 6, 5, 5]
-0.0025701905 0.0043157707 -0.009072063 -0.043588605 -0.010299029 0.0060624955 0.012375018 0.006359457
-0.03144232 0.027978798 -0.021038095 -0.011540335 -0.05201786 -0.072325036 0.016401734 -0.041918177
-0.028366016 -0.052924458 -0.09075911 -0.058598753 -0.029998064 -0.025126705 -0.049062163 -0.06766439
-0.0792184 -0.0021361464 0.019480465 -0.0021486834 0.006257155 -0.020466335 0.019848641 0.0274327
0.030148555 -0.010892542 -0.026437817 0.007287689 0.019678658 0.035108436 -0.022024954 -0.026191287
-0.03471124 -0.026989013 0.0038706695 6.957726e-05 -0.038965344 -0.027725236 0.00495353 0.023477765
0.028805576 0.00440935 -0.018477527 -0.0215452 -0.02397819 0.0011268386 0.012610418 0.00036058534
-0.026410097 -0.007889487 0.021390107 0.05771229 -0.0021349308 0.0015115517 0.0056911567 0.037013706
0.06439551 -0.006335786 0.016897418 0.02665121 0.060872257 0.065094605 -0.047860187 -0.0055079414
0.020101232 0.069092125 -0.00085141463 -0.025619183 -0.062768236 -0.076326594 -0.024005651 -0.0053204377
-0.045855917 -0.026125992 -0.002901726 0.016491823 0.03118296 0.0048343614 0.023084838 0.056661155
0.0528096 0.054916564 0.014412939 0.04789997 0.092151746 0.06293635 0.08593181 0.026907751
0.08493775 0.08378359 0.076166436 0.05904388 0.015539689 0.020193573 0.013746268 -0.038517118
-0.036391385 0.041379284 0.024789846 -0.0354804 -0.055345584 -0.022198264 -0.0074815494 -0.034392368
-0.077393465 -0.08997407 -0.04508088 -0.015789282 -0.02731439 -0.041991882 -0.07042416 -0.037281003
-0.048803333 0.0106443865 0.0031461199 -0.052599803 0.019298388 0.0008918223 0.04835699 0.022389997
0.026237277 -0.010017184 -0.00042927143 0.0055735377 0.02511646 -0.0018725962 -0.044892598 -0.0040898053
-0.00014930048 0.0020725145 0.022474095 0.008707954 -0.013765071 -0.034951758 -0.006008797 0.032630034
0.09975704 -0.07709999 -0.03233587 0.024304101 0.07431418 0.080360144 0.017231336 0.03716415
0.06049469 -0.019775676 -0.07286376 -0.012731612 0.0073584095 0.029447773 0.029506726 0.008148408
-0.0277747 0.02303006 0.06221816 0.09606603 0.02019412 -0.035357438 0.012545058 0.07248748
0.071545854 0.025432957 -0.060163192 -0.08465323 -0.039200533 0.016210996 0.018129697 -0.06380907
-0.07228963 -0.035240736 -0.004142917 -0.008314807 -0.046934202 -0.037083715 -0.01788758 -0.0043965294
-0.06218922 -0.022459356 0.008052495 0.04196138 0.048426658 0.0055338643 0.015893243 0.023908196
0.08183542 0.108697586 0.058143865 -0.008165567 0.046468295 0.03365527 0.024399078 -0.052642036
0.035146795 0.028733782 0.013157437 -0.03225739 0.010703056 0.013907141 -0.0011546407 0.011190318
-0.024686908 0.014290548 0.0067044417 -0.03023759 -0.015907379 -0.06057871 -0.03392682 -0.024432318
-0.026950097 -0.02917131 -0.004743062 -0.0047510937 0.020497072 0.01929448 0.0039006493 -0.012649493
0.03342812 0.0021172334 -0.011039116 -0.014774021 -0.0053129634 0.061344307 0.0073628817 0.016429354
-0.007762357 -0.028526796 -0.019679694 0.008740387 -0.018661292 -0.058432292 -0.0909823 -0.08426685
-0.017786156 -0.01671042 -0.058616683 -0.056940895 0.0068451283 0.01756952 0.067965 0.014890358
0.03294732 0.04684085 -0.051753324 -0.04546249 -0.005864315 -0.012543544 0.015727526 -0.034052655
00000000: a470 28bb 4f6b 8d3b fda2 14bc f789 32bd
00000010: 42bd 28bc e6a7 c63b 96c0 4a3c fe62 d03b
00000020: aac9 00bd cb33 e53c 1558 acbc ac13 3dbc
00000030: ae10 55bd 261f 94bd ee5c 863c 65b2 2bbd
00000040: d95f e8bc 51c7 58bd eadf b9bd 3f05 70bd
00000050: 80be f5bc 85d6 cdbc 68f5 48bd a193 8abd
00000060: 423d a2bd 97fe 0bbb 7f95 9f3c edd0 0cbb
00000070: d208 cd3b 04a9 a7bc 9e99 a23c 8bba e03c
00000080: 1afa f63c a276 32bc 1f94 d8bc 91cd ee3b
00000090: 2335 a13c ddcd 0f3d ad6d b4bc 1c8f d6bc
000000a0: 602d 0ebd 1018 ddbc 0fab 7d3b 02ea 9138
000000b0: 209a 1fbd 0920 e3bc 3951 a23b 7154 c03c
000000c0: acf9 eb3c 4f7c 903b 2f5e 97bc 8f7f b0bc
000000d0: e96d c4bc 6eb2 933a ed9b 4e3c f20c bd39
000000e0: fd59 d8bc e842 01bc 4e3a af3c b963 6c3d
000000f0: 32ea 0bbb 421f c63a e27c ba3b af9b 173d
00000100: cbe1 833d 6d9c cfbb 746c 8a3c a353 da3c
00000110: 3055 793d 5250 853d 0b09 44bd f67b b4bb
00000120: 57ab a43c 2c80 8d3d 7831 5fba 52df d1bc
00000130: a28c 80bd 1e51 9cbd 80a7 c4bc 1157 aebb
00000140: 6ad3 3bbd 2d06 d6bc e22a 3ebb dc19 873c
00000150: 6873 ff3c 9069 9e3b 6a1c bd3c 8715 683d
00000160: e14e 583d 31f0 603d 3f24 6c3c c232 443d
00000170: 0eba bc3d c6e4 803d 04fd af3d a56d dc3c
00000180: d8f3 ad3d bb96 ab3d 26fd 9b3d ffd7 713d
00000190: 2e9a 7e3c fe6c a53c 0738 613c 20c4 1dbd
000001a0: 220f 15bd 537d 293d 1314 cb3c e553 11bd
000001b0: 0db2 62bd 22d9 b5bc c927 f5bb 03df 0cbd
000001c0: 7780 9ebd 5344 b8bd bba6 38bd 8658 81bc
000001d0: 6dc2 dfbc aeff 2bbd 8b3a 90bd f7b3 18bd
000001e0: 01e6 47bd cb65 2e3c 222f 4e3b e472 57bd
000001f0: a717 9e3c 2ec9 693a fb11 463d 3a6b b73c
00000200: 8fef d63c 1d1f 24bc d60f e1b9 39a2 b63b
00000210: 09c1 cd3c e771 f5ba 4de1 37bd c603 86bb
00000220: 8b8d 1cb9 06d3 073b 981b b83c ceab 0e3c
00000230: e486 61bc 9329 0fbd 71e5 c4bb 12a7 053d
00000240: 6b4d cc3d 99e6 9dbd 9e72 04bd 6519 c73c
00000250: 0832 983d dc93 a43d bb28 8d3c 7039 183d
00000260: 48c9 773d 9900 a2bc 9839 95bd 4098 50bc
00000270: d01e f13b 753c f13c 17b8 f13c e680 053c
00000280: c587 e3bc 89a9 bc3c 78d8 7e3d 44be c43d
00000290: 246e a53c f6d2 10bd c989 4d3c 5174 943d
000002a0: a286 923d c758 d03c ae6d 76bd ac5e adbd
000002b0: bd90 20bd eccc 843c bb84 943c 54ae 82bd
000002c0: 960c 94bd 9758 10bd 4fc1 87bb d43a 08bc
000002d0: 143e 40bd 18e5 17bd f988 92bc c310 90bb
000002e0: 20ba 7ebd affc b7bc 9dee 033c b2df 2b3d
000002f0: 085b 463d 6b55 b53b 8c32 823c 1fdb c33c
00000300: 5499 a73d d79c de3d 4328 6e3d dfc8 05bc
00000310: 8a55 3e3d 1cda 093d 93e0 c73c 2d9f 57bd
00000320: 16f6 0f3d 1c63 eb3c 4a92 573c 5320 04bd
00000330: df5b 2f3c c7da 633c 5057 97ba 9857 373c
00000340: 333c cabc e722 6a3c efb0 db3b d3b4 f7bc
00000350: 3150 82bc 6221 78bd d9f6 0abd 4926 c8bc
00000360: 73c6 dcbc acf8 eebc b06b 9bbb 10af 9bbb
00000370: 7ae9 a73c 750f 9e3c 09a2 7f3b d23f 4fbc
00000380: edeb 083d 48c1 0a3b 69dd 34bc bc0e 72bc
00000390: 5e18 aebb 2b44 7b3d 5444 f13b da96 863c
000003a0: 5f5b febb 07b1 e9bc 4f37 a1bc d733 0f3c
000003b0: 91df 98bc b356 6fbd ee54 babd 1994 acbd
000003c0: 46b4 91bc 4ae4 88bc 0c18 70bd db3a 69bd
000003d0: 194d e03b f4ed 8f3c 3c31 8b3d b0f6 733c
000003e0: c5f3 063d 31dc 3f3d 4bfb 53bd e036 3abd
000003f0: 7129 c0bb 7083 4dbc 03d7 803c cc7a 0bbd

conv2.bias f4 [16]
1.8817154e-06 2.9645882e-05 -1.797198e-05 -0.00014322001 -1.1658452e-05 5.4189286e-08 -6.286141e-05 -2.9066332e-06
6.3895563e-06 3.940612e-06 1.7521006e-05 -2.784167e-06 6.13276e-06 2.3924435e-06 -3.976123e-06 -2.4033902e-06
00000000: 408f fc35 0cb0 f837 88c2 96b7 542d 16b9
00000010: ac98 43b7 c0bd 6833 76d4 83b8 940f 43b6
00000020: df65 d636 9939 8436 13fa 9237 a0d7 3ab6
00000030: 02c8 cd36 de8d 2036 a36a 85b6 ee49 21b6

bn2.weight f4 [16]
0.84559625 0.82475746 0.83639914 0.6668815 0.83202636 0.79804146 0.8104439 0.8187086
0.7736589 0.826824 0.794771 0.71243423 0.79235864 0.6778481 0.7627862 0.87983084
00000000: ff78 583f 4e23 533f 411e 563f bfb8 2a3f
00000010: aeff 543f 724c 4c3f 4079 4f3f e396 513f
00000020: 820e 463f bdaa 533f 1d76 4b3f 1762 363f
00000030: 04d8 4a3f 7487 2d3f f545 433f 983c 613f

bn2.bias f4 [16]
-0.1878968 -0.10445069 -0.19093458 -0.19306122 -0.22871438 -0.10318423 -0.21837333 -0.21575132
-0.19209342 -0.104741104 -0.18427956 -0.14078227 -0.20143564 -0.16739878 -0.17854066 -0.2229866
00000000: 0568 40be 3eea d5bd 5b84 43be d7b1 45be
00000010: 1a34 6abe 4152 d3bd 429d 5fbe eaed 5cbe
00000020: 23b4 44be 8182 d6bd c8b3 3cbe 3a29 10be
00000030: 2545 4ebe 966a 2bbe 5dd3 36be 9956 64be

bn2.running_mean f4 [16]
-0.0126115205 0.042950932 -0.19514371 0.021747682 -0.07737811 0.0068692225 -0.013517848 0.06091179
0.19815205 0.026778687 0.17944269 0.026517803 -0.050284974 0.010968835 -0.00907503 -0.27584547
00000000: 8da0 4ebc 51ed 2f3d c1d3 47be 3228 b23c
00000010: 6a78 9ebd 3717 e13b f779 5dbc a47e 793d
00000020: 5fe8 4a3e fa5e db3c d3bf 373e dd3b d93c
00000030: 9ef7 4dbd a1b6 333c 6faf 14bc 9e3b 8dbe

bn2.running_var f4 [16]
0.045919944 0.04583942 0.053601842 0.02315727 0.038557295 0.041143056 0.026625602 0.029024161
0.036258593 0.043355796 0.03680875 0.027328417 0.037826836 0.025706744 0.035080295 0.05397306
00000000: 8d16 3c3d 1ec2 3b3d 9b8d 5b3d 51b4 bd3c
00000010: 41ee 1d3d 9f85 283d ef1d da3c 14c4 ed3c
00000020: e483 143d d995 313d c6c4 163d d8df df3c
00000030: 50f0 1a3d f396 d23c 5bb0 0f3d db12 5d3d

fc1.weight f4 [120, 400]
-2.03012e-05 1.9415024e-06 1.4269426e-05 3.4297223e-05 6.0399007e-06 -4.6354693e-05 -2.5337868e-06 4.5721215e-05
-2.3764953e-05 9.244005e-06 -3.652217e-05 5.716368e-06 1.0217084e-05 -2.8813693e-06 -3.427307e-06 -8.488238e-05
-1.39411895e-05 3.0761406e-05 2.3570823e-05 6.6168614e-06 -5.3248823e-07 6.9862585e-07 3.411259e-05 7.81148e-07
9.849188e-08 1.3940028e-06 -1.4797961e-06 -2.6692703e-06 1.3524249e-06 3.0489522e-07 2.9499094e-07 3.1426494e-05
4.8500046e-06 3.128203e-07 -1.270726e-05 -3.6938936e-06 1.7733321e-06 5.464588e-06 -2.077884e-08 -4.956188e-06
5.88419e-06 -0.00015628905 -1.6893865e-06 -3.006633e-06 1.3586532e-08 -2.2147929e-06 -4.7828464e-05 -3.1981504e-05
5.926298e-06 3.1780117e-17 4.1468607e-05 1.3605694e-06 1.9297566e-05 -9.0407175e-06 8.404633e-06 2.4364275e-05
-2.393106e-07 -3.813493e-05 9.027258e-06 -1.1846485e-05 -4.7660433e-05 -1.2790435e-06 -5.0322865e-06 5.511307e-05
-1.8837754e-05 8.215123e-06 -3.7399845e-05 -5.056095e-06 -2.0950522e-05 2.6090911e-05 4.9862674e-06 -5.60309e-07
5.1438896e-05 7.719107e-05 -3.6121834e-05 -1.8816735e-08 -4.7963266e-07 8.518363e-08 -3.6764846e-05 -2.413193e-07
-3.9090457e-05 3.877884e-06 1.224899e-05 -5.495811e-07 -2.78794e-05 -8.505731e-06 3.906225e-05 -5.731512e-06
-5.5462516e-07 6.7561045e-06 1.0609013e-05 8.443256e-06 -1.0536729e-06 -9.981702e-07 4.8594907e-06 -2.9683352e-07
1.5310367e-05 2.3718999e-06 2.373636e-06 -1.2391404e-05 -3.8244917e-07 -3.569805e-06 -9.671544e-08 1.4383918e-06
-1.0408206e-05 -4.128314e-06 3.98422e-06 -4.8631186e-06 -4.744361e-06 -5.6565847e-07 1.566953e-06 -1.3976474e-05
-7.964388e-07 -1.15671e-06 -8.702399e-08 4.95641e-06 1.4445155e-06 6.989088e-06 2.8456643e-06 5.3125788e-08
-6.80555e-05 -2.2162138e-05 -4.2465424e-05 -2.2455354e-06 -7.870892e-06 -1.408693e-07 1.2251305e-05 -1.6793867e-06
6.135137e-06 9.339054e-07 -1.89372e-07 -2.4624176e-06 -5.0722815e-06 1.1105788e-06 1.3303634e-06 -1.2934663e-06
2.9243743e-05 -7.846647e-07 5.225411e-06 -2.8269392e-06 -4.2169776e-07 2.6442086e-07 -4.4655276e-06 -5.168121e-07
3.997381e-07 -8.5623736e-07 -5.233638e-06 -3.1726464e-05 -2.959629e-05 2.7018414e-06 2.7659987e-06 -8.076916e-05
-1.753314e-05 -1.2778048e-05 5.0396153e-07 -3.7616326e-06 2.9975059e-05 -1.9598588e-06 -3.469041e-05 2.1542987e-06
4.7955236e-06 8.479462e-06 -3.7704901e-06 1.0756354e-06 -6.033457e-06 3.471476e-06 7.612342e-06 -1.9763784e-06
-2.5796895e-05 6.765586e-06 -1.0038482e-06 -8.411267e-06 4.2647266e-06 -2.4688056e-06 -4.857585e-07 9.20562e-16
-4.226121e-06 -7.1531704e-06 -5.1858187e-05 6.971552e-08 -2.4956862e-16 -1.14002505e-05 9.149235e-06 -7.190034e-05
6.9899454e-07 -3.3081992e-07 1.2888358e-05 5.6692284e-07 -5.045673e-05 -2.0279945e-06 -4.6455498e-05 -6.0896182e-05
2.0441688e-05 6.8623804e-06 -1.585779e-07 3.1736537e-05 2.3557037e-05 -8.996899e-06 -4.6696948e-07 2.8582116e-07
-2.1914472e-09 -2.733875e-05 -6.638472e-05 4.3494624e-06 -2.5616686e-07 -3.1859436e-08 -2.813866e-05 5.221864e-06
-2.9161687e-05 -9.576533e-06 4.019184e-07 -2.5279809e-05 -6.557978e-05 -1.925606e-05 2.3988352e-05 -5.746009e-07
-3.730058e-05 -2.3629596e-05 -3.193175e-06 2.3289296e-08 -7.4567415e-06 -7.0226924e-06 2.0012554e-05 -1.0388526e-05
-2.2949638e-07 -1.098785e-07 2.246654e-05 3.2063415e-06 2.5657282e-06 -2.9202e-06 1.4334341e-07 7.284174e-05
-6.93568e-05 -1.7603502e-06 -1.3420976e-07 -9.141003e-07 2.8888166e-05 1.9776859e-05 2.5304078e-06 3.721953e-08
-3.7035683e-05 -1.5660656e-06 -7.6051706e-06 -4.0365003e-06 2.4989322e-06 -8.018627e-05 -0.00012151197 -4.6027442e-05
-3.0812127e-05 2.5767083e-14 5.939474e-07 2.181913e-05 -1.6629821e-05 3.9962406e-06 -9.931358e-16 -1.2283483e-07
00000000: 7f4c aab7 c24a 0236 b866 6f37 5dda 0f38
00000010: 5aaa ca36 f96c 42b8 200a 2ab6 c8c4 3f38
00000020: d95a c7b7 b316 1b37 622f 19b8 3acf bf36
00000030: 0b6a 2b37 8c5d 41b6 b000 66b6 e102 b2b8
00000040: f4e4 69b7 cf05 0138 f5b9 c537 6806 de36
00000050: 50f0 0eb5 3489 3b35 1d14 0f38 15b0 5135
00000060: 7c82 d333 9219 bb35 689d c6b5 b721 33b6
00000070: f784 b535 7bb0 a334 3f5f 9e34 f1cf 0338
00000080: 39bd a236 b2f1 a734 4431 55b7 9ce4 77b6
00000090: 3a03 ee35 745c b736 277d b2b2 554d a6b6
000000a0: cf70 c536 86e1 23b9 e1be e2b5 90c5 49b6
000000b0: 336a 6932 daa1 14b6 6c9b 48b8 e123 06b8
000000c0: 83da c636 578f 1224 94ee 2d38 cf9c b635
000000d0: 35e1 a137 96ad 17b7 a001 0d37 e261 cc37
000000e0: 997a 80b4 12f3 1fb8 c773 1737 44c0 46b7
000000f0: 00e7 47b8 9aab abb5 03db a8b6 3529 6738
00000100: c505 9eb7 afd3 0937 c7dd 1cb8 86a7 a9b6
00000110: e7be afb7 cedd da37 b64f a736 2468 16b5
00000120: 18c0 5738 a4e1 a138 8681 17b8 70a2 a1b2
00000130: 1bc0 00b5 32ee b633 f433 1ab8 ac8e 81b4
00000140: 0ff5 23b8 c51e 8236 0381 4d37 ed86 13b5
00000150: 8ede e9b7 d6b3 0eb7 c6d6 2338 5051 c0b6
00000160: 8de1 14b5 7fb2 e236 5dfd 3137 82a7 0d37
00000170: ed6b 8db5 def8 85b5 b50e a336 7d5c 9fb4
00000180: c36e 8037 ee2c 1f36 c24a 1f36 ade4 4fb7
00000190: 6a53 cdb4 c890 6fb6 e0b1 cfb3 c40e c135
000001a0: e89e 2eb7 f285 8ab6 30b0 8536 df2d a3b6
000001b0: c031 9fb6 c1d7 17b5 1850 d235 807c 6ab7
000001c0: dcca 55b5 4140 9bb5 f2e1 bab3 3d4f a636
000001d0: 2de1 c135 cf83 ea36 24f8 3e36 6c2c 6433
000001e0: 05b9 8eb8 d4e8 b9b7 e71c 32b8 01b2 16b6
000001f0: 390d 04b7 dc41 17b4 f48a 4d37 4a67 e1b5
00000200: 6ddc cd36 7eb1 7a35 2e56 4bb4 0340 25b6
00000210: 9132 aab6 320f 9535 f08e b235 2a9b adb5
00000220: 7650 f537 bfa1 52b5 f055 af36 72b6 3db6
00000230: b365 e2b4 baf5 8d34 97d6 95b6 0fbb 0ab5
00000240: 969b d634 2fd8 65b5 9c9c afb6 0812 05b8
00000250: 8c45 f8b7 4851 3536 7f9f 3936 9d62 a9b8
00000260: 2214 93b7 4c61 56b7 f947 0735 5b70 7cb6
00000270: f372 fb37 1e86 03b6 8b80 11b8 9292 1036
00000280: 3ce9 a036 0343 0e37 8708 7db6 8d5e 9035
00000290: 0073 cab6 81f7 6836 856d ff36 eca1 04b6
000002a0: 6966 d8b7 f103 e336 f6bb 86b5 1e1e 0db7
000002b0: b919 8f36 c2ad 25b6 1265 02b5 beaa 8426
000002c0: 1ace 8db6 4405 f0b6 4e82 59b8 83b6 9533
000002d0: d4dd 8fa5 b443 3fb7 aa7f 1937 33c9 96b8
000002e0: 8aa2 3b35 8b9b b1b4 133b 5837 a42e 1835
000002f0: 80a1 53b8 ae18 08b6 36d9 42b8 c76a 7fb8
00000300: 317a ab37 6643 e636 9045 2ab4 d91c 0538
00000310: 5a9c c537 63f1 16b7 ccb3 fab4 f672 9934
00000320: 5998 16b1 8555 e5b7 0638 8bb8 99f1 9136
00000330: 4e87 89b4 d2d5 08b3 500b ecb7 7837 af36
00000340: 3fa0 f4b7 e5aa 20b7 3fc7 d734 fa0f d4b7
00000350: e087 89b8 1388 a1b7 983a c937 463e 1ab5
00000360: 3173 1cb8 2c38 c6b7 544a 56b6 b40d c832
00000370: ec34 fab6 78a4 ebb6 a2e0 a737 614a 2eb7
00000380: 7c6b 76b4 58f6 ebb3 8776 bc37 872c 5736
00000390: e02e 2c36 a7f8 43b6 f0e9 1934 9dc2 9838
000003a0: a673 91b8 2c45 ecb5 4c1b 10b4 7f60 75b5
000003b0: dd54 f237 7be6 a537 13d0 2936 4edb 1f33
000003c0: c356 1bb8 9b31 d2b5 eb2f ffb6 4671 87b6
000003d0: 54b3 2736 ad29 a8b8 3ed4 feb8 970d 41b8
000003e0: 453c 01b8 d916 e828 c16f 1f35 3a08 b737
000003f0: 4580 8bb7 7217 8636 3e20 8fa6 95e4 03b4

fc1.bias f4 [120]
3.9502243e-07 0.013078191 3.1065106e-14 0.004211758 -0.011450152 0.007816457 -0.014059315 0.008078754
-0.0040780944 -0.006103257 0.002796829 0.034228526 -0.007665713 -0.017055364 -0.001470948 0.0011114248
-0.00547251 -0.012383733 0.0032522 -0.014415846 -0.0013601365 0.01927805 -0.013773724 -0.014626645
-1.9512751e-10 -0.015295533 0.022719782 -0.016170608 0.02650255 -0.014340187 -0.013122447 -0.011990749
0.03283044 0.0141972685 0.0030708585 -0.0031729813 -0.012353016 -0.0093625635 -0.017310144 -0.015514583
-0.015202505 -0.00049961975 0.0006511803 -0.007452254 2.5755045e-26 -0.0083203325 -0.014591805 0.028958194
0.018664988 -0.019873327 -0.0059832116 -0.010735627 -0.008319362 0.0043136477 -0.012286891 -0.0041437196
-0.009158593 -0.012473639 -0.014141771 0.030843144 -0.012410933 -0.011840722 -0.00717636 -0.010786396
-0.006902895 -0.001620863 0.02508717 -0.014080323 0.0027886126 -0.004245046 -0.0123970825 0.0271405
-0.011172385 -0.011617206 -0.0044506635 0.006303775 -0.0017407823 -0.016363781 -0.016815608 0.021558145
-0.008836303 -0.0014011675 -0.01709945 0.021074785 -0.018127218 -0.009301472 -0.007896779 -0.023854123
-0.013045654 -0.0043532145 -0.017785808 -0.0018858021 5.858033e-11 0.0072940616 -0.008537189 -0.007098983
4.9253627e-31 -0.014038532 -0.009230683 0.016428778 -0.0044313893 -0.01993255 -0.016954426 -0.0037039828
0.003345147 0.034179658 -0.006895584 -0.009332484 0.026803048 -0.006200644 0.02830259 -0.005771461
-0.0038789436 -0.015819175 -0.0070435116 -0.016759338 0.024183894 -0.01915463 -0.0010011228 0.02380879
00000000: 7813 d434 e945 563c a1e7 0b29 c902 8a3b
00000010: 6b99 3bbc 9910 003c 0b59 66bc c05c 043c
00000020: 89a1 85bb d5fd c7bb 014b 373b 3633 0c3d
00000030: a930 fbbb b1b7 8bbc d3cc c0ba 3aad 913a
00000040: be52 b3bb 24e5 4abc dd22 553b 7130 6cbc
00000050: 9c46 b2ba 00ed 9d3c 30ab 61bc 98a4 6fbc
00000060: 838b 56af 1e9a 7abc d61e ba3c 3978 84bc
00000070: e01b d93c 1bf3 6abc 88ff 56bc d974 44bc
00000080: 3679 063d a99b 683c 7540 493b cbf1 4fbb
00000090: 4e64 4abc 7065 19bc 01ce 8dbc e130 7ebc
000000a0: ed13 79bc eaf8 02ba f8b3 2a3a 0a32 f4bb
000000b0: cc10 ff14 0152 08bc 7712 6fbc bc39 ed3c
000000c0: 51e7 983c 63cd a2bc d10e c4bb 7ce4 2fbc
000000d0: ef4d 08bc 8059 8d3b f54e 49bc 0ac8 87bb
000000e0: ec0d 16bc 3c5e 4cbc e3b2 67bc c3aa fc3c
000000f0: 3a57 4bbc 96ff 41bc ac27 ebbb 6db9 30bc
00000100: ae31 e2bb 2373 d4ba 9c83 cd3c 28b1 66bc
00000110: 28c1 363b 071a 8bbb 221d 4bbc c155 de3c
00000120: 610c 37bc 1856 3ebc dfd6 91bb e68f ce3b
00000130: f62a e4ba 560d 86bc e3c0 89bc b59a b03c
00000140: 24c6 10bc 61a7 b7ba 2514 8cbc 07a5 ac3c
00000150: 887f 94bc 3465 18bc 7e61 01bc b969 c3bc
00000160: 70bd 55bc 69a5 8ebb 8bb3 91bc 052d f7ba
00000170: cbd1 802e 0603 ef3b 91df 0bbc 969e e8bb
00000180: 50d6 1f0d df01 66bc 4a3c 17bc a595 863c
00000190: 3035 91bb 9649 a3bc 02e4 8abc 85be 72bb
000001a0: 413a 5b3b f8ff 0b3d 5af4 e1bb 46e7 18bc
000001b0: 1192 db3c c62e cbbb d5da e73c 861e bdbb
000001c0: e035 7ebb 3797 81bc 42cd e6bb e14a 89bc
000001d0: 4d1d c63c 2cea 9cbc 1b38 83ba a70a c33c

fc2.weight f4 [84, 120]
-2.790428e-05 0.023119133 5.65126e-17 -0.012939195 -0.01998833 0.08124521 0.053832524 0.012096254
0.096212804 0.053069487 0.027210275 -0.020490235 0.0064751753 -0.006484495 0.06757299 -0.03324838
-0.016349414 0.09515698 0.05608901 0.050402775 -0.022440836 0.01576154 0.056323204 0.0020425902
-6.579824e-07 0.0007867755 -0.049876124 0.0582506 -0.035224665 -0.053788114 0.073379956 -0.011457484
-0.027336257 0.02026709 0.029759455 -0.00415013 -0.0285809 0.07126122 -0.012093707 -0.011692058
-0.018249707 0.009071958 -0.010236188 -0.0058099837 -4.9979633e-13 0.047994338 0.08061735 -0.026876096
0.049105223 0.01877861 -0.027489379 0.013213195 0.0049983487 -0.051465888 0.0096345935 0.018933196
-0.033365734 0.06573929 -0.016796961 -0.042737972 -0.03922301 0.063129485 -0.022123212 0.0061031994
-0.014796269 -0.01519428 0.009076727 0.0055695823 -0.0155858155 -0.015445187 -0.023251146 -0.042336296
0.0055473926 0.026941452 0.07379069 -0.016364597 -0.012241959 0.0014480276 0.05772447 -0.016821774
-0.03877787 0.0016471077 -0.036602918 -0.032185182 0.05549868 0.0721225 0.047770783 -0.009990798
-0.030477894 -0.016362302 0.0036418934 0.0073181097 3.6827853e-08 -0.036916357 -0.020509247 -0.014176153
4.5074014e-10 0.05954386 -0.02146625 0.02083135 0.011134606 0.02937845 0.017182693 -0.017214308
0.04033248 -0.022623053 0.011934301 0.07183426 -0.027570136 -0.009116012 -0.04066875 -0.06315729
0.03584116 0.06614297 0.0095741805 -0.023996212 -0.018388137 0.009932218 0.10597723 -0.020810924
-1.628716e-05 -0.04706521 9.9484714e-18 0.012070234 0.06858505 -0.034550287 -0.027798627 0.00261707
-0.03978647 -0.049815837 -0.044890735 7.720708e-05 0.055745173 -0.01611131 -0.026852041 0.029708162
0.017541932 0.070179544 -0.03536522 -0.02329338 -0.0051012193 0.01891791 0.040911753 -0.02654915
1.4722657e-07 -0.023485892 -0.016533071 0.047670357 -0.0030070364 0.041319203 0.08053494 0.09424718
-0.02332886 0.015715836 -0.035991542 -0.037051793 -0.018209528 -0.0365614 0.039886937 0.00055741577
0.045747247 0.032949176 -0.047050703 -0.024234118 1.9850994e-10 0.03598852 0.040009797 -0.016243448
0.010539826 -0.01882592 0.0012874928 0.10763395 0.08450099 0.029147362 0.05747189 0.008165008
-0.028297042 0.058010932 0.0048662354 -0.056333076 -0.01944222 -0.011150215 0.065033376 0.07065534
-0.0026518877 -0.0057789306 -0.03715613 -0.008212243 0.00987808 -0.03729922 0.08117917 -0.043793213
0.032394577 0.046796337 0.06912313 0.022026699 0.040175863 0.07900882 0.056881856 -0.01685326
0.056778602 0.025023445 0.015749495 -0.0362003 0.045924604 -0.019087873 -0.018971838 -0.006387386
0.0009088388 0.027750611 0.051154718 -0.032450568 -3.957383e-09 -0.018631417 -0.019982848 0.06537535
2.373323e-08 -0.021091215 -0.013563495 -0.045072783 0.0686259 0.029205346 0.04746167 0.0439206
0.008142101 -0.01510192 0.045867104 0.059506968 -0.0081060855 0.059778675 -0.010331286 -0.022065824
0.034695406 0.044719554 0.047601797 -0.0003681371 -0.029595029 -0.02397897 -0.015004318 -0.032042857
-0.0002946909 -0.021896148 -1.9502484e-16 0.015265274 -0.019488135 -0.013628036 -0.03624353 -0.025522964
-0.025052827 -0.024332833 -0.029556748 0.10071789 0.03785752 0.03262521 -0.036225103 -0.004289328
00000000: fc13 eab7 5664 bd3c 274f 8224 ebfe 53bc
00000010: 91be a3bc e363 a63d 7e7f 5c3d 5e2f 463c
00000020: 380b c53d 645f 593d 15e8 de3c 23db a7bc
00000030: b52d d43b e37b d4bb b563 8a3d 742f 08bd
00000040: 35ef 85bc aae1 c23d 97bd 653d 2473 4e3d
00000050: d8d5 b7bc 581e 813c 29b3 663d fadc 053b
00000060: 35a0 30b5 9c3f 4e3a e84a 4cbd 2e98 6e3d
00000070: bd47 10bd ed50 5cbd 3b48 963d 2cb8 3bbc
00000080: 49f0 dfbc 2b07 a63c 1aca f33c d0fd 87bb
00000090: 7e22 eabc 67f1 913d af24 46bc 0c90 3fbc
000000a0: 6980 95bc 8da2 143c afb5 27bc ad61 bebb
000000b0: 1fae 0cab b695 443d b61a a53d 422b dcbc
000000c0: 8f22 493d 99d5 993c 6831 e1bc 287c 583c
000000d0: 30c9 a33b e5cd 52bd 6ada 1d3c ca19 9b3c
000000e0: 82aa 08bd 52a2 863d c899 89bc 030e 2fbd
000000f0: 4fa8 20bd 084a 813d bd3b b5bc 59fd c73b
00000100: 0d6c 72bc 6ef1 78bc 8db6 143c 0b81 b63b
00000110: a65b 7fbc cf0d 7dbc 3079 bebc d368 2dbd
00000120: e7c6 b53b 52b4 dc3c 931f 973d 0c0f 86bc
00000130: 7f92 48bc becb bd3a 7e70 6c3d d1cd 89bc
00000140: 8bd5 1ebd c3e3 d73a f1ec 15bd 9cd4 03bd
00000150: 9552 633d f6b4 933d 4cab 433d 72b0 23bc
00000160: c7ac f9bc 3c0a 86bc d5ac 6e3b c1cc ef3b
00000170: a72c 1e33 9b35 17bd 0203 a8bc 1843 68bc
00000180: 09cc f72f 43e4 733d fdd9 afbc 82a6 aa3c
00000190: ec6d 363c 13ab f03c b8c2 8c3c 0505 8dbc
000001a0: ac33 253d fb53 b9bc 1688 433c d71d 933d
000001b0: c4da e1bc 535b 15bc 4694 26bd 9c58 81bd
000001c0: 2ece 123d f775 873d 06dd 1c3c b493 c4bc
000001d0: b8a2 96bc beba 223c 970a d93d ac7b aabc
000001e0: 69a0 88b7 73c7 40bd 5484 3723 3bc2 453c
000001f0: 5276 8c3d 9a84 0dbd f2b9 e3bc 2683 2b3b
00000200: 23f7 22bd b10b 4cbd 59df 37bd 3cea a138
00000210: 0d55 643d defb 83bc d0f8 dbbc 885e f33c
00000220: 19b4 8f3c 4bba 8f3d 1fdb 10bd c2d1 bebc
00000230: 2128 a7bb bcf9 9a3c 1593 273d 9a7d d9bc
00000240: 5515 1e34 7c65 c0bc 5d70 87bc fe41 433d
00000250: b311 45bb 533e 293d 81ef a43d aa04 c13d
00000260: 2a1c bfbc 7fbe 803c de6b 13bd 9fc3 17bd
00000270: 262c 95bc 68c1 15bd 7c60 233d 8a1f 123a
00000280: 7761 3b3d b7f5 063d 3db8 40bd a186 c6bc
00000290: 9543 5a2f b368 133d 50e1 233d fb10 85bc
000002a0: 3caf 2c3c d138 9abc 17c1 a83a 306f dc3d
000002b0: db0e ad3d 73c6 ee3c a567 6b3d 87c6 053c
000002c0: 33cf e7bc df9c 6d3d f174 9f3b 83bd 66bd
000002d0: 4a45 9fbc 64af 36bc 3830 853d bfb3 903d
000002e0: 4bcb 2dbb 2f5d bdbb 0731 18bd a58c 06bc
000002f0: acd7 213c 11c7 18bd 4441 a63d 8360 33bd
00000300: 2db0 043d 84ad 3f3d 6d90 8d3d 5671 b43c
00000310: 728f 243d 60cf a13d f3fc 683d d90f 8abc
00000320: ae90 683d f8fd cc3c 1605 813c c446 14bd
00000330: 701b 3c3d 2c5e 9cbc d46a 9bbc 474d d1bb
00000340: 243f 6e3a 4055 e33c 9c87 513d e3ea 04bd
00000350: 82f9 87b1 eaa0 98bc 12b3 a3bc 83e3 853d
00000360: eddd cb32 7cc7 acbc 6c39 5ebc 3d9e 38bd
00000370: bc8b 8c3d 0d40 ef3c 2b67 423d 16e6 333d
00000380: 7266 053c 0b6e 77bc 25df 3b3d 94bd 733d
00000390: 63cf 04bc 7cda 743d 8e44 29bc 63c3 b4bc
000003a0: c51c 0e3d da2b 373d 1afa 423d 8602 c1b9
000003b0: 4671 f2bc 8b6f c4bc acd4 75bc 5f3f 03bd
000003c0: be80 9ab9 8d5f b3bc 2cd9 60a5 331b 7a3c
000003d0: 95a5 9fbc 2048 5fbc 1974 14bd 8915 d1bc
000003e0: 963b cdbc a655 c7bc fe20 f2bc 2e45 ce3d
000003f0: 7d10 1b3d 03a2 053d c660 14bd 7e8d 8cbb

fc2.bias f4 [84]
-0.009800104 0.0038185327 0.09097685 0.036833536 0.029545274 0.031988353 0.18957058 0.123712845
0.049002822 0.054778315 -0.0012976477 0.1255326 0.13070443 0.020753663 -0.016471406 0.07227269
0.10099366 0.08276991 0.0011677557 0.044043 0.11186333 0.16052553 0.108870745 0.00054989336
0.040059596 0.20495647 0.004622205 -0.007346976 0.07216929 0.0073865955 0.14232238 0.1390605
0.04551946 0.13881321 0.028105695 0.094356135 0.111501314 0.0062247626 0.013904781 0.16134745
0.11131513 -0.011272806 -0.028193425 -0.0041295583 0.029833479 0.027256187 0.14884444 0.03276341
-0.0023025842 0.0098997075 0.03968374 -0.01693893 0.10598027 0.1554856 0.06448194 -0.021252459
0.03334719 0.19449243 0.12815203 0.14641592 -0.007978943 0.02888476 -0.029706068 0.061633684
0.1536581 0.09593811 -0.00021081982 -0.006684525 -0.00083808164 -0.011734886 0.04870264 0.0006016289
0.09919892 0.05587172 0.13063747 0.040404696 0.09324911 0.013257271 0.040637232 0.013137249
-0.014064641 0.169788 0.079323046 0.049798295
00000000: 9e90 20bc 5940 7a3b 1252 ba3d c3de 163d
00000010: ee08 f23c 3806 033d ca1e 423e 295d fd3d
00000020: 2fb7 483d 3a5f 603d d515 aaba 9e8b 003e
00000030: 62d7 053e 9603 aa3c 0bef 86bc b403 943d
00000040: c4d5 ce3d 4583 a93d 610f 993a 6f66 343d
00000050: 9a18 e53d ce60 243e a0f7 de3d b826 103a
00000060: 8815 243d 1ce0 513e de75 973b e7be f0bb
00000070: 7ecd 933d 410b f23b f5bc 113e e065 0e3e
00000080: 9d72 3a3d 0d25 0e3e ea3d e63c ca3d c13d
00000090: cd5a e43d 18f9 cb3b e1d0 633c 4438 253e
000000a0: 30f9 e33d 93b1 38bc e6f5 e6bc 3f51 87bb
000000b0: 5765 f43c 5e48 df3c ad6a 183e ed32 063d
000000c0: f4e6 16bb 6232 223c 6b8b 223d 83c3 8abc
000000d0: 2f0c d93d 9e37 1f3e 1b0f 843d a319 aebc
000000e0: 1097 083d 0629 473e 493a 033e 0eee 153e
000000f0: 1dba 02bc bb9f ec3c 245a f3bc 9a73 7c3d
00000100: 8d58 1d3e 337b c43d 840f 5db9 dc09 dbbb
00000110: b5b2 5bba ae43 40bc 6b7c 473d a2b6 1d3a
00000120: ce28 cb3d bfd9 643d d4c5 053e 657f 253d
00000130: 64f9 be3d 0635 593c 3a73 263d 9e3d 573c
00000140: 616f 66bc e8dc 2d3e 1f74 a23d 4cf9 4b3d

fc3.weight f4 [10, 84]
-0.0863002 0.113645926 -0.10305225 0.14610335 -0.14004254 0.11967663 -0.14914767 -0.1612716
0.13999875 0.09806819 0.12707217 0.10410813 -0.09804397 -0.08341786 -0.12464255 -0.10134421
0.08964733 -0.09474584 -0.15241243 -0.109252445 0.11464077 0.0856479 0.0841291 0.0965092
0.11913421 -0.1385497 0.107554555 -0.0683565 -0.11580987 0.13375586 0.121268265 0.12639315
0.09682391 -0.016711807 -0.11981629 -0.042716768 -0.12895782 -0.12148109 -0.12126683 0.12072489
-0.14658777 -0.15588336 -0.1323875 -0.12206429 -0.13529496 -0.12920114 0.09278033 0.029770138
-0.09912534 -0.18216927 -0.15382051 0.09452944 -0.14841138 -0.12119876 0.095461406 0.15527466
0.11276905 -0.12507157 -0.15146606 0.08100967 0.076483734 -0.13621193 0.14199367 -0.16955303
-0.12832953 0.08641519 0.10449768 0.07868145 0.12610354 -0.11549675 0.14045835 -0.0957618
-0.1306512 -0.1568955 -0.12406521 -0.17200828 -0.15121669 0.11192273 0.104437046 -0.10384004
-0.08870517 -0.1759364 0.08407607 0.08872095 -0.057920758 -0.11285208 0.12769845 0.15612727
0.049587768 0.12505203 0.10499511 -0.16414839 0.1121515 -0.18631442 -0.10819622 -0.14722283
0.107892826 -0.1451961 -0.16270208 0.11181778 -0.17299657 -0.15120448 -0.15398555 0.11142557
-0.12105365 -0.17772943 -0.17773907 -0.12963757 -0.1228645 0.17937617 -0.1282072 0.16141826
0.12023975 0.13582464 -0.14256921 -0.13006018 -0.10615137 -0.13300343 -0.109161474 -0.18655257
0.12116575 -0.13427724 0.12459394 0.16323158 -0.15145944 -0.1363522 -0.13156073 -0.12896702
0.10162136 0.0955715 -0.16724044 -0.1521669 -0.05382778 0.048292357 -0.119251415 -0.057143334
0.10893329 0.10885088 -0.16649285 -0.12113135 -0.10400377 0.15537901 0.121500626 0.029951993
0.08423752 -0.102001004 -0.10038126 0.10406125 -0.14267898 0.113482706 -0.14325516 -0.16256095
-0.027117472 -0.096137136 -0.11933132 0.13459834 -0.17517944 0.10984054 0.11217181 -0.18641101
-0.13340752 0.11146549 -0.078960896 0.11642423 -0.10395417 0.11625579 -0.21734722 0.14059626
0.11060733 -0.1027439 -0.10804594 -0.06544032 -0.13175273 0.10554673 0.1180225 -0.11888416
0.110086605 -0.101670615 -0.09616284 -0.0024689266 -0.11193147 -0.100505084 -0.115622945 0.14673083
-0.14657165 -0.079104334 -0.12527907 0.12056734 -0.1015326 -0.11767682 0.06279628 0.08247897
-0.087182574 0.109505475 0.08206155 -0.07407191 -0.124027 0.0916783 -0.11127089 -0.12243809
0.10301604 -0.10565964 0.10203302 -0.07200515 0.11232 -0.08187477 0.07189043 -0.15507172
-0.11465263 0.034090675 0.09392357 0.090544656 -0.16481 0.107289664 -0.110833794 0.048576202
0.10788081 -0.055846572 0.070576064 0.08730252 0.13379535 -0.16234341 -0.128184 0.02600382
-0.09996429 -0.048521504 -0.11739074 0.071147054 0.038314782 0.096846126 -0.044890467 -0.14137259
-0.100181624 0.10916332 0.08495796 0.048055287 0.101755686 -0.12567613 0.11881328 0.092989795
-0.12256057 0.10193432 -0.1257879 0.075522006 0.008373742 -0.156395 0.11560169 -0.120615534
0.11289788 0.07541515 0.01116442 0.13467743 0.096147135 -0.163466 -0.16569331 -0.10651849
00000000: 29be b0bd 32bf e83d 0f0d d3bd 1e9c 153e
00000010: 5067 0fbe 0519 f53d 2bba 18be 6224 25be
00000020: d55b 0f3e fad7 c83d 351f 023e a536 d53d
00000030: 47cb c8bd fcd6 aabd 9844 ffbd 8e8d cfbd
00000040: 0599 b73d 1b0a c2bd 0112 1cbe bfbf dfbd
00000050: c8c8 ea3d 2b68 af3d e14b ac3d 9ea6 c53d
00000060: a3fc f33d f9df 0dbe 9045 dc3d 7efe 8bbd
00000070: ba2d edbd 4cf7 083e 7f5b f83d 356d 013e
00000080: 9d4b c63d 33e7 88bc 3e62 f5bd c7f7 2ebd
00000090: 850d 04be 14cb f8bd be5a f8bd 9c3e f73d
000000a0: 1b1b 16be e39f 1fbe 9790 07be d8fc f9bd
000000b0: c38a 0abe 4e4d 04be 9d03 be3d 81e0 f33c
000000c0: 3a02 cbbd 958a 3abe 2083 1dbe a798 c13d
000000d0: 27f9 17be 0e37 f8bd 4581 c33d 5200 1f3e
000000e0: 76f3 e63d c312 00be eb19 1bbe 66e8 a53d
000000f0: 81a3 9c3d 247b 0bbe ca66 113e 4f9f 2dbe
00000100: d168 03be 72fa b03d e102 d63d bd23 a13d
00000110: 4921 013e 8f89 ecbd 50d4 0f3e c31e c4bd
00000120: 6ec9 05be 37a9 20be e715 febd f022 30be
00000130: 8cd8 1abe bf37 e53d 17e3 d53d 16aa d4bd
00000140: 0eab b5bd ac28 34be 1330 ac3d 54b3 b53d
00000150: 513e 6dbd fe1e e7bd 62c3 023e d4df 1f3e
00000160: 8b1c 4b3d a40d 003e ad07 d73d 8416 28be
00000170: b0af e53d 35c9 3ebe fb95 ddbd 95c1 16be
00000180: eaf6 dc3d 49ae 14be 609b 26be b800 e53d
00000190: 0326 31be 59d5 1abe 63ae 1dbe 1733 e43d
000001a0: faea f7bd b4fe 35be 3b01 36be b6bf 04be
000001b0: 62a0 fbbd 63ae 373e c048 03be d44a 253e
000001c0: 4240 f63d 9d15 0b3e aafd 11be 7f2e 05be
000001d0: e465 d9bd 0d32 08be 0d90 dfbd a307 3fbe
000001e0: c025 f83d f97f 09be 1c2b ff3d 2e26 273e
000001f0: 2f18 1bbe e99f 0bbe dbb7 06be ee0f 04be
00000200: dc1e d03d feba c33d 1441 2bbe a4d1 1bbe
00000210: 857a 5cbd 35ce 453d 163a f4bd 210f 6abd
00000220: 6b18 df3d 36ed de3d 1a7d 2abe b713 f8bd
00000230: eeff d4bd ad1b 1f3e 52d5 f83d e25d f53c
00000240: b984 ac3d e7e5 d0bd b194 cdbd 111e d53d
00000250: 701a 12be 9f69 e83d 7bb1 12be 6176 26be
00000260: 7625 debc 8ce3 c4bd fb63 f4bd 26d4 093e
00000270: 3d62 33be 14f4 e03d 55ba e53d 87e2 3ebe
00000280: fb9b 08be 0548 e43d 40b6 a1bd d46f ee3d
00000290: ede5 d4bd 8417 ee3d 4590 5ebe 77f8 0f3e
000002a0: 1986 e23d 656b d2bd 3147 ddbd 9305 86bd
000002b0: 30ea 06be e228 d83d c8b5 f13d 8a79 f3bd
000002c0: 1675 e13d af38 d0bd 06f1 c4bd b7cd 21bb
000002d0: 543c e5bd 9cd5 cdbd b9cb ecbd 9b40 163e
000002e0: e116 16be 7401 a2bd 2849 00be 02ec f63d
000002f0: 53f0 cfbd 8b00 f1bd 569b 803d bcea a83d
00000300: c78c b2bd 6844 e03d e30f a83d 03b3 97bd
00000310: de01 febd d5c1 bb3d fee1 e3bd d2c0 fabd
00000320: 13fa d23d 1564 d8bd b0f6 d03d 7077 93bd
00000330: 0708 e63d f6ad a7bd 4a3b 933d 1fcb 1ebe
00000340: 00cf eabd aaa2 0b3d 005b c03d 7a6f b93d
00000350: f4c3 28be afba db3d d4fc e2bd d7f7 463d
00000360: 9df0 dc3d 60bf 64bd 2f8a 903d aacb b23d
00000370: a601 093e 5a3d 26be ab42 03be f705 d53c
00000380: 14ba ccbd 7cbe 46bd 8e6a f0bd 8cb5 913d
00000390: f6ef 1c3d 4357 c63d 11df 37bd fac3 10be
000003a0: 062c cdbd 0591 df3d 70fe ad3d 9fd5 443d
000003b0: 4965 d03d 3eb1 00be 6054 f33d 6f71 be3d
000003c0: 0901 fbbd f1c2 d03d 8bce 00be 48ab 9a3d
000003d0: 0532 093c 0326 20be 94c0 ec3d 4705 f7bd
000003e0: 0137 e73d 4273 9a3d f9ea 363c e1e8 093e
000003f0: cae8 c43d a263 27be 82ab 29be 5e26 dabd

fc3.bias f4 [10]
0.012232971 0.14638002 -0.03568109 0.052333087 -0.16400959 -0.2975583 -0.47455668 -0.20361042
0.8931808 0.05664145
00000000: cd6c 483c a5e4 153e 5626 12bd 385b 563d
00000010: 21f2 27be 9059 98be 18f9 f2be 407f 50be
00000020: 7fa7 643f dd00 683d
