defended_model_combined.pth (torch, 253831 bytes, 18 tensors)

conv1.weight f4 [6, 1, 3, 3]
00000000: af96 8cbd 24c8 23be af1e 34be 4c21 1bbe
00000010: b17b 5ebd cea1 663d 2c09 e5bd e495 533d
00000020: a958 0b3e 4f57 cabd 384c 143d 480e ee3d
00000030: f21b f63d 8d8c e23d 75b3 b8bd 8312 613d
00000040: a69f b9bd 94fb 4ebd 4ff5 023e e1c2 37bd
00000050: dba8 11be 82f3 1a3e 04d0 72bd 0573 aebd
00000060: f754 64bd 751d 0bbe 372e e1bd c0d0 80bd
00000070: 55d9 d1bd da33 82be b410 8abd a7d5 f6bd
00000080: a0e4 c4bd 8857 1e3e 1315 253e 0e1b e73d
00000090: 234a a6bd 5599 493d edec 6c3d 1a58 2abd
000000a0: 0428 5c3d 0261 d43a c971 31bd 2568 173d
000000b0: 4b52 483e 6c43 183e 55a0 6cbe 6289 c6bd
000000c0: 519b fd3d 1ad1 e03c 85a6 8e3d 96ce 173c
000000d0: 8aa2 a8bb 4e48 113d
-0.06864678 -0.15994316 -0.1758983 -0.1514942 -0.05431718 0.056306653 -0.1118339 0.05165662
0.1360804 -0.09879934 0.0362055 0.11623818 0.12017049 0.11061964 -0.09018604 0.054949295
-0.09063654 -0.050532892 0.1278889 -0.044863585 -0.1422457 0.15131953 -0.05928041 -0.08518032
-0.05574509 -0.13585456 -0.10995143 -0.06289816 -0.10246531 -0.25430185 -0.06741467 -0.1205247
-0.09613919 0.15463078 0.1612132 0.11284457 -0.08119609 0.049218494 0.057843138 -0.041587926
0.0537491 0.0016203227 -0.043321405 0.036964554 0.19562642 0.1486947 -0.23108037 -0.096941724
0.1238314 0.027443457 0.06965355 0.0092655625 -0.0051463293 0.035469346

conv1.bias f4 [6]
00000000: f433 f6bc 6610 b9bb 0835 80bd 80ae 313c
00000010: 1593 63bc f0e4 06bd
-0.03005407 -0.005647707 -0.06260115 0.010844827 -0.013890048 -0.032933176

bn1.weight f4 [6]
00000000: 8898 113f a359 803e b016 e13e 9eb8 e93e
00000010: d07e 993e 2296 523e
0.5687337 0.25068387 0.43962622 0.45648664 0.29979563 0.20565084

bn1.bias f4 [6]
00000000: 0de3 17bd b925 8ebe f83e cabd 87cc 04be
00000010: 751e 23be 8514 b4bd
-0.037081767 -0.27763155 -0.098752916 -0.12968646 -0.15929587 -0.08792976

bn1.running_mean f4 [6]
00000000: c854 25bd 5884 cbba 8fe8 90bd dbbc 513b
00000010: 4da2 00bc 4fc3 e9bc
-0.040364057 -0.0015527112 -0.07075607 0.0032003436 -0.0078511955 -0.028535513

bn1.running_var f4 [6]
00000000: c194 7f3e ef18 103d 07a0 2e3e b606 493e
00000010: 98cb 9c3d cb01 1d3d
0.24959089 0.03518003 0.17053233 0.19631466 0.0765602 0.038331788

conv2.weight f4 [16, 6, 5, 5]
00000000: ef9c 7bbc c52c bebc cb2c 713c 412a 133d
00000010: 8ab6 363d e1e9 eabb a0ad a33c b3b6 763c
00000020: fcd3 4a3c db05 013d 4bad 7f3d 49b8 17bb
00000030: 87fe e9bb 94da a9bc b791 9b3c d505 4d3d
00000040: 8718 613d bb23 9a3c 5322 cb3c 6dab 32bc
00000050: 2dea 283d 4c5e 293d 7a2f a33d 8d15 a73c
00000060: eb08 19bc 6706 b33c 112b ec3c 3e03 5bbb
00000070: aeec 583d e95c 133d c714 213d 53f6 e03c
00000080: 818c ebbb 388e b5bc 089c 253c 1f8b 46bb
00000090: f392 9cbc c01e 66bd 5f17 4abd 95ce b5bc
000000a0: 21f2 e53b 8318 1dbd 7980 56bd 8623 72bd
000000b0: 3aa8 25bd b17c ef3c 4674 3cbd 54d3 53bd
000000c0: 9941 5dbd 48b3 93bd bb8a 92bb 45d0 dd3c
000000d0: b513 823d 0390 6a3d fcbd b23c df3d 3cbd
000000e0: 7e17 8f3c ffce 433c 8f48 033d 4b27 b33c
000000f0: ad60 6fbd 29c9 04be c8af bbbd 306f 78bd
00000100: 7ec5 27bd e5fe eebd 496e 7ebd db00 8cbd
00000110: f4c6 94bd e147 09bd b662 353b 52bd 4bbb
00000120: 719b 5d3c 7fe6 f83a f9c1 d6bb f32d bf3b
00000130: d02c 98bb 7374 a2bc b24a 6bbc 595a 923c
00000140: 7abe 013d 6cca 6b3c 3cb0 b4ba 65d1 a43c
00000150: f139 763c c9a7 913c 58af ae3c 2eb2 053d
00000160: 374b be3d 166d 153d 682c 0f3d ef81 393d
00000170: 47f9 a13d b75c 223c 6e2c 603c 3773 a43c
00000180: cab8 11ba d01f 0e3d f9bc 923c b26c 883c
00000190: 1374 2a3c c539 883d 55a5 513d 390b 523d
000001a0: 0e2f 873d 51c3 4c3b 9891 33bc afd0 5c3d
000001b0: e36c 833d d9ad 143d 82a2 13bd a010 92bd
000001c0: 9e66 a6bd b398 a9bd deb0 d2bd b00c 12bb
000001d0: befb 4fbb e886 92bc 16ff 5abd c41f 6dbd
000001e0: 8b2e f73c fb21 923c f950 ab3c bff3 fa3c
000001f0: 220a 373b 42b2 f23c 956c 4f3c fbb6 91bc
00000200: ef25 273c e258 4e3a 23d5 653b fdff 9ebc
00000210: 0806 ee3a 9419 21bd bd2a 133b fbb0 16bd
00000220: 6b4d 86bc 99d4 34bc 54a4 b1bc 9689 51bd
00000230: 34db 093d 2c3d b5b9 e673 4cbb 4eb4 97bc
00000240: 6126 36bd 52a2 133d e810 8b3b 5848 e8ba
00000250: 5f90 be3b 7237 9abb 5059 0e3b f743 bc3c
00000260: 0582 463c c5c9 a43c d336 493d 30a8 153d
00000270: 7d73 0e3d 182a 043c 9d70 1d3d 0e8a bc3b
00000280: 86dc e7bc 52a5 633c 901e 023d b207 153d
00000290: 63e7 7b3c 24d3 96bd f99d b3bd 70a3 63bd
000002a0: b02d 6b3c dfb2 7b3d b1bf 32bd 8aa5 17bd
000002b0: b8d2 babc be3d 0e3d d01a 893c 5dfa a5bc
000002c0: 9cbf 2f3a 0196 983d 515d 543d 11b4 0a3c
000002d0: 697c 883d 57d0 f53d 536d 873d 2d4b ac3d
000002e0: 2a37 8f3d 3f2e 573d c71d 66bc c5c8 8ebb
000002f0: 8d46 b4b8 6f66 373c d941 a3bd eec6 6fbd
00000300: fa66 7fbc 8e56 ce3c b7db 223d b9d2 cbbc
00000310: ad43 25bd e2a2 2abc ccf0 e7bc 1694 8c3c
00000320: eae9 02bc aec2 97bc 890c e3bb e54f d0bc
00000330: 8212 03bd 1f33 7cbc 7a96 f83c 065b 1d3d
00000340: 29b0 ba3c b7b1 7fbb d8a4 8f3c 8af8 a2bc
00000350: d19d fabc 10d8 973c a560 623d 709f 77bd
00000360: eb71 7dbd dcdf fdbc 7f61 adbc 8e97 0dbc
00000370: cda8 1abd f7d9 82bd 3d64 d0bc afeb ddbc
00000380: 6ea7 af3b ab64 d23c 4d23 e8bc 6755 963c
00000390: 97aa 363d 7c04 26bc 30dd e8bc 70bc 05bd
000003a0: 6fa8 8d3d 4472 a53c dc57 36ba 542d 40bd
000003b0: 5e23 313b 2736 ef3c be1a c93c fda6 5abc
000003c0: d9cd c23a 33ac 41bb 2ea2 583b 0764 2e3c
000003d0: 292d b33b 0f28 1c3d d40a 6d3c e310 803b
000003e0: 470d 6dbd 3312 58bd 251e 42bd 9c2d b3bc
000003f0: a3eb 6cbc 65f6 d8bb 9e6e 1c3c c29f 2bbd
-0.01535724 -0.023214707 0.014720152 0.03592897 0.044607677 -0.007168994 0.019980252 0.015058207
0.012379643 0.031499725 0.062421124 -0.0023150614 -0.0071409377 -0.020734109 0.01899038 0.05005439
0.05495503 0.018815866 0.02479664 -0.010905129 0.041238952 0.041349694 0.0796804 0.020396018
-0.009340505 0.021853639 0.02882913 -0.003341868 0.05296009 0.035977278 0.039326455 0.027461207
-0.00718838 -0.022162542 0.0101080015 -0.0030295325 -0.01911304 -0.05618167 -0.049338695 -0.022193233
0.0070173894 -0.038353454 -0.052368615 -0.05911591 -0.040443636 0.029234262 -0.046009324 -0.05171521
-0.054017637 -0.072119296 -0.0044721044 0.02707685 0.06351415 0.057266247 0.021819107 -0.045957442
0.017467257 0.011951207 0.03205162 0.021869322 -0.058441807 -0.12967362 -0.09164387 -0.06065291
-0.040959828 -0.11669711 -0.062116895 -0.06836101 -0.0726451 -0.033515815 0.0027677245 -0.0031088185
0.01352583 0.0018989592 -0.006553885 0.005834335 -0.004644014 -0.019830918 -0.0143610705 0.017865347
0.031675793 0.014391523 -0.0013785432 0.020119378 0.015028463 0.017780202 0.021323845 0.03264063
0.0929169 0.036480986 0.03495446 0.04528993 0.07908874 0.0099098 0.013682468 0.02007447
-0.0005558847 0.034698308 0.017912375 0.016653392 0.010403651 0.06651644 0.051183064 0.051280234
0.06600772 0.0031244347 -0.010960005 0.053909954 0.06417253 0.036298607 -0.03604365 -0.07132077
-0.081250414 -0.08281078 -0.10287641 -0.0022285394 -0.0031735743 -0.017886594 -0.053465925 -0.057891622
0.03017356 0.017838469 0.020912634 0.030633805 0.0027929624 0.029626016 0.012660165 -0.017787447
0.010201915 0.0007871521 0.0035069666 -0.019409174 0.0018159756 -0.039331034 0.0022455894 -0.036789875
-0.016394338 -0.011037015 -0.021684803 -0.051156603 0.033656314 -0.00034568587 -0.003119701 -0.018518593
-0.044470195 0.036043473 0.0042439587 -0.0017721755 0.00581555 -0.0047063166 0.0021720715 0.022981627
0.01211596 0.020115742 0.04912455 0.03653735 0.034778107 0.008066677 0.038437475 0.005753762
-0.028303396 0.013894396 0.031767428 0.036384292 0.015374991 -0.07364491 -0.08770365 -0.055575788
0.0143541545 0.06144988 -0.043639842 -0.037023105 -0.022805557 0.03472685 0.016736418 -0.020260984
0.0006704272 0.07450486 0.051846806 0.008465783 0.06664354 0.12002628 0.06612649 0.08412776
0.069929436 0.052534338 -0.014045185 -0.0043574297 -8.59621e-05 0.011193856 -0.07971544 -0.058539324
-0.015588516 0.025187757 0.039760318 -0.024880754 -0.040347744 -0.010414811 -0.028313063 0.017160457
-0.00799034 -0.018525448 -0.0069289845 -0.025428722 -0.032000072 -0.015393048 0.03034519 0.038416885
0.022789078 -0.0039015838 0.017534658 -0.019893903 -0.03059283 0.018535644 0.05526795 -0.060454786
-0.06187622 -0.030990534 -0.021164654 -0.0086420905 -0.037758637 -0.0638923 -0.025438422 -0.027089922
0.0053605353 0.025682768 -0.028337145 0.01835127 0.04459628 -0.010132905 -0.028425783 -0.03265041
0.06916892 0.020196088 -0.0006955841 -0.04691823 0.0027029137 0.029200627 0.024548884 -0.013345477
0.0014862373 -0.0029552102 0.003305565 0.010643966 0.00546803 0.03812414 0.014467914 0.003908263
-0.05787399 -0.05275173 -0.04739203 -0.021872334 -0.014460477 -0.0066211694 0.009547858 -0.041900404

conv2.bias f4 [16]
00000000: a0ab fcbc 9ad0 f2bb f198 debb df8a 3cbd
00000010: edf9 583d 925c b43c f4ae 82bc 9655 1aba
00000020: 7e24 f73c 34c7 abbb 7f54 773d 59ed cabc
00000030: 0e20 9fbc b8bc cc3c eaf0 323b 2ac4 eb3c
-0.030843556 -0.007410121 -0.0067931344 -0.046030875 0.052972723 0.022016797 -0.015952565 -0.0005887387
0.030168768 -0.0052422527 0.060383316 -0.02477138 -0.019424465 0.024992332 0.002730424 0.028780062

bn2.weight f4 [16]
00000000: bbe9 663f b0b1 2d3f f293 693f aa72 303f
00000010: 2f11 4d3f 832a 323f 6605 283f e5e1 433f
00000020: 3b17 483f cfd0 233f 2ae3 5c3f d4c3 433f
00000030: 6c57 563f 8b65 4c3f d4e7 493f 2dc4 2c3f
0.90200394 0.67849255 0.9124137 0.68924963 0.80104345 0.6959612 0.6563324 0.7651656
0.78160447 0.6399049 0.86284125 0.76470685 0.83727145 0.7984244 0.78869367 0.6748684

bn2.bias f4 [16]
00000000: 01c0 2dbe eb44 14bd 6d88 96bd d7e0 a7bd
00000010: 97eb 14be 172e 21be 12f1 f3bd ec64 d0bd
00000020: 73f0 40bd 8251 0ebd 456f 80bd e9e7 78bd
00000030: 3931 72bd abd8 17bd 9a25 57bd f607 47bd
-0.16967775 -0.036198538 -0.0735024 -0.08197182 -0.14542995 -0.15740238 -0.11911215 -0.10175499
-0.04710431 -0.0347457 -0.06271223 -0.06076804 -0.059128974 -0.037071865 -0.052526094 -0.048591577

bn2.running_mean f4 [16]
00000000: 07d8 49bc 16fa 47bc 6c74 873d d4f5 11bd
00000010: f082 933d 7727 dbbb 7c53 78bd 59d3 56bd
00000020: c266 0a3d b743 90bc c7a9 b33d 36ba a63c
00000030: 2432 e23b f0e5 873d ee6f 7f3d 80a3 543d
-0.012319571 -0.012205621 0.066140026 -0.03563483 0.07202709 -0.006688054 -0.060626492 -0.05244765
0.033789404 -0.017610414 0.08772617 0.020352464 0.00690295 0.06635654 0.062362604 0.05191374

bn2.running_var f4 [16]
00000000: d937 6b3c 7d0c 3a3c f799 c03c 75a5 363c
00000010: 96f6 813c 18f4 223c bfab 4c3c f2d0 5e3c
00000020: f2a0 923c c40a 633c 3d93 b83c a028 7c3c
00000030: c6ad 7a3c ac60 833c 07cc aa3c 319c 823c
0.014356577 0.0113555165 0.023510916 0.0111478465 0.015864652 0.009945892 0.012492119 0.013599621
0.01789901 0.013857547 0.022531146 0.015390545 0.01530022 0.016037308 0.020849241 0.015943618

fc1.weight f4 [120, 400]
00000000: 89de f0bc 356c c83c 4afd 693c 0c96 a0ba
00000010: b5e0 6ebd 9b75 9d3c 2c98 473c 8922 283d
00000020: d318 873d 5b39 ed3c d15f 313d c3f6 6e3d
00000030: 196b 603d 9b97 073d 6039 353d db3c ef3d
00000040: 57b8 c23d 7307 283d 41ee 4bbc 0af7 adbd
00000050: f3d4 56bd 886d 58bc 149c cfbc 6722 c4bc
00000060: e16c a83c 8fe8 cd3c 9dac 57bc 63ee acbc
00000070: 4354 c73a 5055 8d3d e54a d2bc 5928 96bc
00000080: 509d 01bd 2328 13bd 2d72 bc3d 012d e3bc
00000090: 138b 65bc a56c 363d 9466 9d3d 7fff db3c
000000a0: 5222 5ebc cf9d 1dbd 2860 66bd df5b 89bd
000000b0: 9a81 01bd 3e98 9d3b 9d6e 99bc 4e39 c4ba
000000c0: a2e1 28bd b200 43bb 70c9 583d a719 b63b
000000d0: 3aef cf3c 3f91 08bd 0e14 9e3c 66ee d8bc
000000e0: d414 9aba 26b1 62bb 00c2 18bd deed 8cbd
000000f0: 3edb 813c 7d84 23bc 5603 27bd c4bb 42bc
00000100: c1cd 90bd 8fd7 073d 6015 80bd a035 f6bc
00000110: 1a38 cdbc b252 36bb 55d9 f73a 3003 3bbb
00000120: 1a02 ddbc 508a f73c 530e d93c d9c9 393c
00000130: 0a79 0c3c abf3 893c 9889 9f3c 3896 373b
00000140: 0e62 74bc b90c cf3b 8100 06bb a2d3 0d3d
00000150: b340 3c3c 4411 d73c 01b7 113c d6f5 60bd
00000160: 85f0 47bd c538 f73c 5712 1ebd f168 80bb
00000170: 8b26 85bd 6dd8 b93c e5c8 113d afea 4abd
00000180: e783 27bc 93bf 6e3c de00 1f3c 1f2e 273b
00000190: 0700 3f3c 26cf 553c d7a8 17bd 8423 733b
000001a0: dec5 dbbc f0e4 41bd 3d0f 11bd 7167 dfbb
000001b0: 7b9c 5ebc feed c0bb 09b2 6cbd fa53 9ebc
000001c0: bb80 9abc 7461 8bbd 5dc2 aabd 1760 8abd
000001d0: a828 6bbd b2ff 53bd 4a7e 19bd bd4c a0bc
000001e0: 1498 39bd d44b 17bc c039 5dbd c9b3 ae3c
000001f0: 454a d2ba 676a d9bc 9bbe 923c 572a 573d
00000200: d55c d93c 1ac6 25bd c4b8 47bd ef2c bc3c
00000210: 6dd4 393d 9e08 0a3d 2148 f83c 8369 1e3d
00000220: 23b3 853c 66fe 523d f293 2f3c 91bd fb3c
00000230: 840a fe3b 94ba c53c a468 ef3d 040c 493c
00000240: 3862 82bc ff64 113d 09ff 0abd 9a0e 3abb
00000250: f0be fc3b e821 59bb eeb0 70bd 7851 3d3d
00000260: 2b31 3a3d c1c6 633b 0ec3 2c3d 1761 c33c
00000270: a885 63bb df96 063c 000e 9fba a827 81bb
00000280: bb72 0bbd 5f34 213b 4bfa 843c 8b56 7f3c
00000290: 5135 6abd 3330 c6bb 091e cabb db45 953c
000002a0: 4d2f b8bc 7de1 f53b 2fc8 f83a 030c 25bd
000002b0: f7b1 c53a 11d2 0a3c b577 a73a f9a6 bbbc
000002c0: 9058 6b3c 0a28 873c 6cba 9f3b 2753 cebc
000002d0: 9e8b 52bd 3696 c3bc 406a 15bc c9bd abbc
000002e0: 340e 37bb 7817 35bb 340a b63c 66f6 88bc
000002f0: aa5b e23c 480e 20bc 7b06 493d 7106 95bc
00000300: 69c7 e13b 6a7d 27bd 16da 12bc 7343 af3b
00000310: aaef 603d 1fbf cd3c e5d6 26bd 0878 8fbd
00000320: 4154 db3a 617b cc3c d838 373d 64f0 c9bb
00000330: 9f1c d73c 481a 413c 8364 3fbd 6a93 833c
00000340: c125 e03c 1ba0 ad3c 3eca 1d3a 8c12 003d
00000350: 8fec 073d 306d 393c d838 03bd 0222 033d
00000360: 4cbe f13b 5902 04bc e8a0 fbbc 3dcd 06bc
00000370: eb8e b3bb 1ab3 d23c 96d7 813b d2c1 0bbb
00000380: 7e04 67bd 1dfb b93b 4be9 5bbd cc20 643c
00000390: 5dc8 013d 30dd 923c ed92 61bc 0dfb e4bc
000003a0: 80fe 773c e3f1 37b9 fe25 943b dbba 23bd
000003b0: 89d6 b13b fdf6 4f3d 78c6 7fbc 21a2 f43b
000003c0: ef20 20bd 84ac 44bc b280 37bd 362a 2ebb
000003d0: 84d0 273c 6996 943d 9022 9a3d 7a62 f53c
000003e0: 1314 7bbc 97f3 aabc 1ea3 1e3d 7ce7 01bc
000003f0: 2906 3abd 74c1 16bd 9780 b0bb 90e5 6bbd
-0.029402988 0.02446566 0.01428158 -0.0012251749 -0.058319766 0.019221118 0.012182277 0.04104856
0.06596532 0.028958013 0.04330427 0.0583408 0.054789636 0.033103567 0.04424417 0.11681529
0.09507816 0.04102273 -0.012446941 -0.084943846 -0.052449178 -0.013209708 -0.025342979 -0.023942186
0.02055973 0.025135307 -0.013163713 -0.021109765 0.0015207607 0.06901038 -0.025670478 -0.018329786
-0.031644166 -0.03592695 0.09201465 -0.02773142 -0.014010209 0.044537205 0.07685581 0.026855228
-0.013557987 -0.038480576 -0.056244045 -0.06706976 -0.03161774 0.0048094084 -0.018729502 -0.0014970691
-0.041230805 -0.0029755053 0.05292648 0.005557257 0.025382627 -0.033341642 0.019296672 -0.026480865
-0.0011755475 -0.0034590452 -0.037294388 -0.06881307 0.015851613 -0.009980318 -0.040774666 -0.011885587
-0.070704944 0.033164557 -0.06254077 -0.030054867 -0.025051165 -0.0027820286 0.0018909374 -0.0028535835
-0.026978541 0.03021732 0.026496088 0.011339628 0.00857378 0.016839823 0.01947479 0.0028013121
-0.014915956 0.0063186553 -0.0020447078 0.034625657 0.011490035 0.02625335 0.008893729 -0.054921947
-0.04881336 0.030178437 -0.03859171 -0.00391876 -0.06501492 0.022686208 0.03559198 -0.049540218
-0.010224319 0.014572042 0.009704797 0.0025509668 0.011657721 0.013049876 -0.037026253 0.0037100026
-0.026827749 -0.047337472 -0.035414923 -0.006817751 -0.013587113 -0.005887746 -0.057786975 -0.019327153
-0.018860212 -0.06805697 -0.08337853 -0.06756609 -0.05741182 -0.051757522 -0.037473954 -0.019567842
-0.04531105 -0.009234387 -0.054010153 0.021325963 -0.0016043863 -0.026539994 0.017913153 0.052530613
0.026533524 -0.040472127 -0.04876019 0.022970645 0.0453686 0.033699624 0.030307831 0.038674843
0.01632077 0.051512145 0.010716425 0.03073004 0.0077527184 0.024136819 0.116898805 0.012270931
-0.015915975 0.035496708 -0.033934627 -0.002839005 0.007713191 -0.0033131782 -0.058762483 0.046220273
0.045457046 0.0034755918 0.042178206 0.023850007 -0.0034717117 0.008214681 -0.001213491 -0.003941495
-0.034044962 0.0024597866 0.01623263 0.015584598 -0.057179753 -0.0060482263 -0.0061681313 0.018221786
-0.022483492 0.007503687 0.0018980558 -0.04029466 0.0015082945 0.008472935 0.0012776764 -0.022906767
0.014364377 0.016498584 0.004874518 -0.025186135 -0.05140268 -0.023875337 -0.00911957 -0.02096452
-0.002793205 -0.0027632397 0.022221662 -0.016719054 0.0276316 -0.00976903 0.049078446 -0.018191548
0.0068902266 -0.04089109 -0.008963129 0.0053486167 0.05491606 0.025115548 -0.040732283 -0.07005316
0.0016733484 0.024961175 0.044731945 -0.00616269 0.026258765 0.011786051 -0.046726715 0.016061503
0.027361752 0.021194508 0.0006019211 0.031267688 0.033184584 0.011317536 -0.032036632 0.032014854
0.0073774215 -0.0080572 -0.030716375 -0.008227644 -0.0054796836 0.025720168 0.0039624674 -0.0021325243
-0.05640077 0.005675687 -0.053689282 0.013923835 0.031685222 0.017927736 -0.01376794 -0.027951742
0.015136361 -0.0001754235 0.0045211306 -0.03997312 0.005427186 0.050772656 -0.0156112835 0.0074656163
-0.039093908 -0.012004022 -0.044800468 -0.0026575453 0.010242585 0.07255251 0.075261235 0.029954184
-0.01532461 -0.020868106 0.03872978 -0.007928725 -0.04541603 -0.036805585 -0.005386423 -0.057591975

fc1.bias f4 [120]
00000000: 747a 913b 773b 42bd e2c0 29bc 03c3 283c
00000010: b771 1abc 231c 25bd 0c77 ddbb 3aa6 b9bc
00000020: 6761 b7bc 011a 29bc 57ed d3bc 9bb2 253c
00000030: 7f97 3f3d 9cbd 393d 0c52 533d 3eee 09bd
00000040: fabc 0b3d 4b2e e53c 06a8 ed3c 5cac 933d
00000050: 3517 043d b392 e43c e6ad 53bb 0218 d13c
00000060: 9e7f 48bc 0ced dd3c 9efe 7d3d baec f03c
00000070: 76cb 353d fc87 1bbd 3b04 a0bc 575f 9039
00000080: 7d3e a4bc 4717 893b d0e3 94bc 9a9f 2cbd
00000090: c792 c1bc 0627 62bd d029 21bd 3f1d b33b
000000a0: d103 fdbb 2ed2 1f3d a293 d63c f9b2 b03d
000000b0: 847e 61bd 8e03 193d af40 743d f157 a53c
000000c0: 3c8e 7bbc f3c4 90bb 4e57 df3c 0017 d3bc
000000d0: ee81 473c 550c 3dbd 0044 0b3d ca65 0c3b
000000e0: 259c 063d 0aca 39bc 6b87 2b3d 8593 f5bc
000000f0: 871a 013d 933e 043d 246c 3cbd c416 2b3d
00000100: e2da 1cbd 735e 05bc a66c 88bc 5797 34bc
00000110: 53b0 bfbb a8b8 9abb ea06 db3b 6a9f 2fbb
00000120: 61ba 11bc d223 0bbb d71d 8cbb 006e ed3c
00000130: c282 373b 78a5 24bd 4c25 ae3b 9a69 af3c
00000140: ee33 983d 5237 013d 0fc6 cd3b c5aa 873c
00000150: 483c 6f3c 9ba3 8fbc 9c2c b5bc 7895 2abd
00000160: e234 183d 512a 383d fd3d cdbc b01b 20bd
00000170: 12ab 3d3d e23a 303c ceee a83c d6e4 90bd
00000180: 05b4 b9bb 4020 0dbd 76d6 37bc 1bb8 d23c
00000190: c95a 3bbd adb3 1abd eb67 d2bc a7f5 00bc
000001a0: 07dc 9b3b bfd0 3e3c 0ce4 3f3c f9ef 81bc
000001b0: 7b63 bb3c a4c8 b0ba 42d7 22bd 2ebc 9cbc
000001c0: 8459 673c ca77 fabc d029 703c 4794 2c3d
000001d0: 949b 6c39 733c b53c 8382 7a3c b8a0 81bd
0.0044396464 -0.04741999 -0.010360928 0.010300401 -0.009426526 -0.040310036 -0.0067585763 -0.02266227
-0.022385312 -0.010321141 -0.025870008 0.010113384 0.046775337 0.04534684 0.051591918 -0.03367447
0.03411577 0.027976176 0.029010784 0.07210609 0.032248694 0.027901983 -0.0032299696 0.025524143
-0.012237458 0.027090572 0.0620104 0.029409755 0.04438349 -0.03797148 -0.019533267 0.00027536854
-0.020049328 0.004183683 -0.018175036 -0.042144395 -0.02362956 -0.055212997 -0.039346516 0.005466133
-0.007721402 0.039018802 0.026193444 0.08627886 -0.055052295 0.037356906 0.059632 0.020183535
-0.015353736 -0.0044180094 0.02726331 -0.025767803 0.012176974 -0.04615434 0.034000397 0.0021422976
0.032863755 -0.011339674 0.04187719 -0.02997757 0.03151944 0.032286238 -0.04600157 0.041769758
-0.03829468 -0.008140194 -0.01665337 -0.01102241 -0.005849877 -0.00472172 0.006684174 -0.00267979
-0.008894534 -0.0021231067 -0.004276018 0.028983116 0.0028001522 -0.040196866 0.0053145047 0.02141266
0.0743178 0.0315469 0.006279714 0.016560921 0.0146017745 -0.017534068 -0.022115998 -0.04164645
0.037159808 0.04496223 -0.025053972 -0.039088905 0.046305723 0.010756226 0.020621683 -0.07074897
-0.005667212 -0.034454584 -0.011220565 0.025722554 -0.045740876 -0.03776901 -0.025684318 -0.007871068
0.004756454 0.011646449 0.011712085 -0.015861498 0.022874584 -0.001348753 -0.039756067 -0.0191327
0.014120463 -0.030574698 0.014658406 0.042133596 0.00022564671 0.022123551 0.0152899055 -0.06329483

fc2.weight f4 [84, 120]
00000000: c869 f9bc 253c 15bd 6ce5 abbc 1cd4 cbbc
00000010: f0ff d93d 1c4d 89bc cca5 b53d af21 6f3d
00000020: 7f2b 7d3d 35fc 143d cfb6 2c3d 6083 583c
00000030: 0e06 05bd eb58 ecbc 1810 a03c b416 933d
00000040: 3ad3 8f3d 99ed 923b c4e6 c83c 5f43 d43c
00000050: 4703 a43c 9bcb 923b 0231 2dbd fb90 613c
00000060: 4bb3 34bd 9631 d0bc f213 b6bc 31a2 38bd
00000070: 05e5 56bd 8a39 2abd 487a 763d 9511 653c
00000080: 7ba3 d43d b988 4ebc beb7 c2bc c49c 9abc
00000090: 8c96 7fbc b894 713b 42f6 55bd 4d8e f73b
000000a0: c442 4d3d d7dd 85ba 82f3 593b 5149 bfbc
000000b0: 23d8 283c 879a f13d 733c babc 4a70 f13c
000000c0: 52ac b53d bf51 1cbd 15ab e23c d552 303c
000000d0: f66d 89bd bf85 013c f341 cbbc 5f06 f7bc
000000e0: c384 46bd 4bab bcbc f1c9 b43d e3a9 bf39
000000f0: b8c8 543d e836 e7bc 0b1a 41bd 59d5 1abc
00000100: c625 74bd 4d35 d9bc a0e3 3dbb cf34 973d
00000110: 1f3a f1bb d019 b53c 8b90 15bd 75cc 33bd
00000120: 828d f9bc 28d1 243c 6862 08bc d835 593c
00000130: 1351 03bd 467e 863d 2b8c 623c 20e0 c63b
00000140: 3785 e63b 1d45 cbbc f5bb 883d 688b 33bd
00000150: 2223 5a3d f967 c93c 8ca8 fb3c 5f12 ca3d
00000160: af34 01bd 1d6d c83c 6ca9 643d 2ab3 7d3b
00000170: d1a8 b5bc 404f b1ba ee9e 82bc fc17 643c
00000180: 79bc b1bc e54a 833d bc75 92bd b9e2 d9bc
00000190: 5c4f 173c 2c9d c23d cc2e c23a f44b 543c
000001a0: b51e a8bc 105b a23b ee9e 29bd e566 fcbc
000001b0: 935a f33b 421e 193d 74e3 883c c3d9 883d
000001c0: fec4 a93d 4538 1bbb ee93 863a 7ad1 dd3a
000001d0: 5e85 51bd 0c01 debc fcc5 763c 753e a93b
000001e0: 0755 4c3d e958 38bd 1e47 24ba c649 43bd
000001f0: 15c3 3c3d 172b 873d a0cf 7d3c a700 b23c
00000200: 2e1e c73c 7269 0ebd 1c73 d2bc f042 5dbc
00000210: 7c00 4a3d daa1 8f3d f619 7cbb 25ee 03bc
00000220: 7fd2 983d 16b6 233b 017f 6bbd 592c 673d
00000230: 387f cabc 53d9 0d3d 92c1 d73c cc86 bfbc
00000240: a7ff 46bb 277f babc 534e 21bd 1bd1 36bc
00000250: 5d1d d23c 0978 43bd 353f d83c 8917 93bd
00000260: 6501 123c f2b5 1cbb 2ae2 5c3d 8351 ed3c
00000270: af18 313d e5d0 81bc f87d 2fbd 563e 883c
00000280: 26b1 9cbc 567a 11bc c467 863c 4e5a ddbc
00000290: 2c87 8bbd dee1 f33c 5fb5 19bc cc90 903c
000002a0: 5cda 0b3c eb13 6bbd a587 e83c d0bb 223c
000002b0: 21f5 3bbd ba5b 82bc 0a89 ab3d 0f13 343d
000002c0: 2dce 76bc e75c 153d 9596 f3bb b6d2 b43c
000002d0: efa6 bb3c 9243 273c ed77 acbc 9184 be3c
000002e0: 7f15 38bd 7814 babc fa1e 00bc 0139 523d
000002f0: b68f 933b 0983 75bd cff3 fb3c 9e3c 66bd
00000300: 83a0 00bd 3115 a6bc 59da ad3c cbc0 213d
00000310: c0b1 28bc cb9f 123c fc4a 3abc 6bd3 e93d
00000320: c1d7 a1bc 7d30 7d3d 3d3a b5bc c28a 9ebd
00000330: d98f 5bbd f25b a23c ef90 f73a dcf3 013d
00000340: 5ae4 febc 4f56 5c3d 4840 563d 1977 81bd
00000350: eb92 103d eaea 443d efcb 6cbc 587d c03b
00000360: b440 00bb 137e e8bb 43fc a4bc 7364 fbbc
00000370: 4a7e 2c3b 18b9 efbc 489c f93c 455a ca3c
00000380: 5bc0 8a3c 3be9 443d b58f e73c cbf4 c83d
00000390: ef97 aa3d 7453 933c 3bf4 933d f8a2 653d
000003a0: a17f 463d 09da 2b3c 8e2f 9e3d 6cc2 c1bc
000003b0: e182 82bd d6cd 1fbd 80ba f3bc f182 533d
000003c0: 74dc 19bc 8556 0e3d d6be 40bb 2c4d 2b3c
000003d0: 9e73 a53c 763c 33bd bf3d 69bc 24c0 8c3a
000003e0: e5c6 9c3d 5853 353c 2c38 12bc 52d8 573c
000003f0: aa9d fb3c 9f6d f53c 2b2b d4bc 9a6f 063d
-0.030445948 -0.03643431 -0.02098342 -0.024881415 0.10644519 -0.016760401 0.08869514 0.058381733
0.06180906 0.036373336 0.042166527 0.013214916 -0.032476477 -0.028850993 0.019538924 0.07182065
0.0702271 0.0044838903 0.0245241 0.025911031 0.020021094 0.004479838 -0.042283066 0.013767476
-0.0441163 -0.02541427 -0.022226308 -0.045076553 -0.052464504 -0.04155878 0.06017521 0.013981243
0.10382744 -0.012605839 -0.023769256 -0.01887358 -0.015599858 0.0036862325 -0.052236803 0.0075548054
0.0501125 -0.0010213208 0.0033256714 -0.02335039 0.010305437 0.11797052 -0.022733903 0.029472489
0.08870758 -0.038163897 0.027669469 0.010761936 -0.067104265 0.007905423 -0.02481172 -0.030154405
-0.048466455 -0.023030898 0.0882758 0.00036556934 0.051949233 -0.028224424 -0.047143977 -0.00945028
-0.059606336 -0.026514674 -0.0028974786 0.07383119 -0.007361665 0.022107035 -0.0365148 -0.043896157
-0.030462984 0.010059632 -0.008324243 0.013257466 -0.03205974 0.065670535 0.013827364 0.0060691983
0.0070349234 -0.02481323 0.06676475 -0.04383412 0.05325616 0.02458571 0.030720018 0.09866785
-0.031544384 0.024466092 0.055825636 0.0038711526 -0.022175224 -0.0013527647 -0.015944924 0.013921734
-0.021696316 0.064107694 -0.07151362 -0.026597368 0.009235229 0.095026344 0.0014814972 0.012957562
-0.020522455 0.004954703 -0.041411333 -0.030810783 0.007426569 0.03738237 0.01671002 0.0668216
0.082895264 -0.0023684662 0.0010267475 0.0016923391 -0.05115258 -0.027100109 0.015061852 0.005164916
0.049885776 -0.045006666 -0.0006266701 -0.047677778 0.046084482 0.066000156 0.015491396 0.021728827
0.024306383 -0.03476853 -0.025689654 -0.013504729 0.04931687 0.070132926 -0.0038467622 -0.008052384
0.07462024 0.0024980358 -0.057494167 0.056438778 -0.024718866 0.034631085 0.026337419 -0.023379706
-0.0030364783 -0.02276571 -0.039381336 -0.011158253 0.025648767 -0.047721896 0.026397327 -0.07182223
0.008911465 -0.0023912159 0.053926624 0.028969532 0.04323643 -0.015846679 -0.042844743 0.016631287
-0.01912744 -0.008879265 0.016406901 -0.0270206 -0.06812891 0.029770788 -0.009381621 0.01764717
0.008535948 -0.057392042 0.028384993 0.009932473 -0.04588807 -0.01591288 0.083757475 0.04396349
-0.015063805 0.03646555 -0.0074337223 0.022073131 0.022906749 0.010208981 -0.021053279 0.023256572
-0.044942375 -0.022714838 -0.007819885 0.051323894 0.0045032157 -0.059939418 0.030755905 -0.056210153
-0.031403076 -0.020273777 0.02122228 0.039490502 -0.010296285 0.00894923 -0.011370417 0.11417278
-0.0197562 0.06181382 -0.022122497 -0.0774131 -0.05360398 0.019819234 0.0018887798 0.031726703
-0.031114746 0.053793248 0.052307397 -0.06321544 0.035296362 0.048075594 -0.014452918 0.005874317
-0.0019569816 -0.0070951073 -0.020139819 -0.030687546 0.0026320391 -0.029263064 0.030470029 0.024701247
0.016937425 0.04807399 0.028266767 0.098123156 0.0832976 0.01798413 0.07224318 0.056063622
0.04846156 0.010488995 0.07723914 -0.023652278 -0.063726194 -0.03901466 -0.029752016 0.051638547
-0.009390939 0.03475048 -0.0029410622 0.010455411 0.020196732 -0.043758832 -0.014235913 0.0010738415
0.076551236 0.011067234 -0.008924525 0.013174133 0.030714829 0.029959498 -0.02589949 0.032821275

fc2.bias f4 [84]
00000000: 72de e63c 30f8 b13d 7b3f 153d 4375 4c3d
00000010: 6f04 a43d 83b7 0e3d 6107 043b ab30 e13c
00000020: b4c5 883d f0eb 933b 60cc c9bc 0e51 053a
00000030: 41bf d13b b6d1 483d 81ed a13d 0edd 903a
00000040: 8f33 123c e01b a8bc da01 cb3d 0113 803d
00000050: da75 c33c e83f 873d a008 563c 16f7 283d
00000060: 51f6 693c 9cfd c4bc 5a17 b83c b6f0 cfbb
00000070: f2c4 7f3d 1858 953d b58e bc3d 16e3 283d
00000080: 3c4b a53c ff80 703d 1ae6 503d ef69 b73c
00000090: 0d71 793d 4941 2c3d 9589 373c 4ef3 fbba
000000a0: a8b6 103d b6e0 6f3d f716 5f3d c3e4 9bbc
000000b0: f381 1c3d fe82 4f3d 36d4 be3c 0932 d43c
000000c0: 437b 04bb bb33 b33d 567c 4e3d 9127 a53d
000000d0: 6bc1 83bc 4a3c f83d e917 903d 886f b93d
000000e0: dba2 3c3d 1106 cb3c 1818 9f3c 0852 e03c
000000f0: b42a e23c 0ae5 40bc ac4e 063d 69d4 dd3c
00000100: 0469 683c 31af cd3c e30e 463d 69c1 553d
00000110: a1d2 de3b e83c 5d3d 1964 493d 279a db3b
00000120: d6f0 a83d 8af2 fc3c 4db1 d73d fab8 823b
00000130: 0f93 173d 82f3 073c b479 073d eac3 643d
00000140: c5d9 0f3d 1c4c 7a3d 33e2 793d a0c2 f1bb
0.028182242 0.08689916 0.036437493 0.049916517 0.08008658 0.03484298 0.0020146 0.027489027
0.06678334 0.00451421 -0.024633586 0.00050856255 0.006400973 0.04902812 0.079066284 0.0011052208
0.008923425 -0.020521104 0.099124625 0.06253625 0.023859907 0.06603986 0.01306358 0.041251265
0.014279918 -0.024046712 0.022472072 -0.0063458337 0.06244368 0.07292193 0.09206907 0.04123219
0.020177476 0.05871677 0.051000692 0.02238938 0.06089883 0.04205445 0.011202236 -0.0019222291
0.035330445 0.05856391 0.05446526 -0.01902998 0.038209867 0.050662033 0.02329455 0.025902765
-0.0020215071 0.08750101 0.050411545 0.08064187 -0.01608344 0.12120874 0.070358105 0.09054476
0.04605375 0.024783166 0.019420668 0.027382866 0.027608253 -0.011773357 0.03278987 0.027078824
0.014185194 0.025107952 0.04835404 0.052186403 0.0068000113 0.054013163 0.049167726 0.006701726
0.08249061 0.03087737 0.10531864 0.003989336 0.03700548 0.008297803 0.03307505 0.0558509
0.03511979 0.06110774 0.061006736 -0.0073779374

fc3.weight f4 [10, 84]
00000000: 092d 103e ead9 b83d fe26 4ebd 5715 09be
00000010: d21a 1dbe 90cb 85bd d3ff 18bd 1fde f2bd
00000020: 1b71 93bd c2d7 9bbd 246b d43d 901a a93d
00000030: 2ac0 9b3d 6dd5 083e 88d2 ff3d ee8d b8bd
00000040: 0464 5bbd 2f0c f2bd 655d 2f3e 5cbd 1b3e
00000050: bab9 19be f335 d3bd 0983 09be 8100 5ebd
00000060: 1416 e33d abf1 223e 8ac5 a5bd 536c 8f3d
00000070: fcdb 81bd fd1b 5c3d a56b debd 7d74 203e
00000080: 2ead 54bd 05b3 df3d 8c83 e33d 42c3 2dbe
00000090: 0848 21be 3440 15be 3936 9abd 3f7f 8abd
000000a0: 5365 11bd 0e8a d6bd ecbc fcbd 63dd 8cbd
000000b0: 8b8b f5bd 2d0d 0dbd 897f f1bd 26de 75bd
000000c0: d8c8 0c3e a310 173e 13ed dabd db6b 023e
000000d0: d6e9 fdbc 2d17 263e 4cbf 54bd 6583 10be
000000e0: 1804 033e 4b1b f93d b89b 01bd 08f5 66bd
000000f0: 81c8 113e f810 adbb 3118 d8bd 031d 093e
00000100: 89eb f53d 4c8e aebd 0179 473d b4cb 043e
00000110: f428 4bbe 50ff 03be 4421 973d 9918 f53d
00000120: d76b a5bd 38ea e43d 33ef 2bbe e6fe 033e
00000130: b269 a5bd ec83 5fbd ab6e dfbd 23ab ef3d
00000140: be22 97bd b404 ed3d 4621 c03d 1aa8 133d
00000150: 9767 25bd eeb0 26be 72fd 0e3e ea95 c63d
00000160: be95 38be 5dd7 1a3e 7553 163e f68a e73d
00000170: cff5 163e 5414 ecbd 3733 0ebe 21f3 34bd
00000180: e8a9 2dbd f97a 2c3e 61f7 26be 9601 1ebd
00000190: f615 1ebe 56e5 40bd ae8d 153e 0ba1 04be
000001a0: 3992 c53d 3d24 133e 89e8 c73d 97b0 b2bc
000001b0: ac47 c0bd 4cb2 24bd bdf2 ccbd 3e83 e43d
000001c0: d154 76bd d0b5 33be 87d2 f0bd 6bfb a4bd
000001d0: 23b2 573e 15ea 0dbe 1fb5 f0bd 5c7a fb3d
000001e0: b93b b13d f30b 0fbe d015 e1bd a1e9 e53d
000001f0: 2648 f83d b240 7fbd 689f f33d 2c16 483d
00000200: d975 e6bd 92d8 d8bd f38d f3bd db1b f2bd
00000210: a744 9f3c c456 c53d e1b1 d8bd f89c eb3d
00000220: 6b38 f2bd 3427 2ebe 9889 19bc 5234 0cbe
00000230: 05fe 223e 4f75 90bd a6d8 eabd 2ec6 3e3e
00000240: 72c0 083e 776c ec3d 2c89 ffbd c102 27be
00000250: c859 29be bba4 de3d 5a87 35be 7002 86bd
00000260: 4d6d c03d 23e5 c33d 010a 14be 7db4 13be
00000270: d1a2 0b3e e4af 333e 6c18 9d3d 82e3 29be
00000280: 472d ffbd 16b1 243e f472 d9bd cb59 e2bd
00000290: 4d38 e53d 6fb1 9a3d 2811 80bd 1716 17be
000002a0: 6131 0f3e 54a9 17be edba b23d 7de0 8ebd
000002b0: 12df febd 6887 af3d 318e 093e e886 06bc
000002c0: 2f24 17bd ffb7 cbbd 0147 cfbd cabd 9cbd
000002d0: 9949 1fbe 326f c93d 70a0 c1bd a8c0 233e
000002e0: b7e6 d2bd b10c 84bd cd94 fa3d a858 0c3e
000002f0: 9757 af3d ae63 b4bd 0189 f2bd 7bcc 193e
00000300: 451f 063e c729 b93c 1c9a bdbd 860d d2bd
00000310: 5043 92bd d0bf 9a3d 1b95 1abc 31d3 043e
00000320: 209f 6ebd 61ca 44bb bb9c ed3d 8a88 06be
00000330: 7eee f53d 12cc e3bd 850f f63d 4730 cbbd
00000340: 7d10 adbd 2295 113e d8a3 173e 4a57 e5bb
00000350: 15ec b33d 7755 f0bd 672c 8f3d d4e9 953d
00000360: f420 483c 35df 443d a8ab 7b3d 83f8 b1bd
00000370: e258 c43d 20db f3bc b2e4 193e fafc ddbd
00000380: 2f00 cfbd 3f28 f63b b525 06bd c977 043e
00000390: 8be9 dfbd 5af6 0abe ae00 9abd 5485 c03d
000003a0: f620 b1bd 5949 b83c e93a c03d f733 57bd
000003b0: 9fdc 28be 0c6e 083e bf7f 10be 9768 ab3d
000003c0: d5be 53bd ac82 5b3d 0d4c 9e3d 1bdc e1bd
000003d0: f82d adbd 2436 f23d 8d92 a4bd d089 ef3d
000003e0: 3ce6 913d 09bb c8bd a24b 173e 02b2 063c
000003f0: db22 ce3d 7cfb 883d 5e4a 22be 6697 1dbe
0.1407968 0.09025939 -0.050330155 -0.13387047 -0.15342262 -0.06532967 -0.037353348 -0.118587725
-0.071993075 -0.07609512 0.10371998 0.082570195 0.07605012 0.13362665 0.124913275 -0.09011446
-0.05356218 -0.1181873 0.17125471 0.15208954 -0.15012255 -0.10313024 -0.13428892 -0.0541997
0.110881954 0.15912502 -0.08094318 0.07003083 -0.06340787 0.05373763 -0.10860375 0.15669437
-0.05192297 0.10922817 0.11109075 -0.16969016 -0.15750134 -0.14575273 -0.075298734 -0.067625515
-0.03549702 -0.104755506 -0.123407215 -0.06878164 -0.11989506 -0.034436394 -0.117919035 -0.06002631
0.13748491 0.1475244 -0.106897496 0.12736456 -0.03099529 0.16219778 -0.051940247 -0.14112623
0.1279453 0.12163409 -0.031642646 -0.056386024 0.14236642 -0.005281564 -0.10551489 0.13389973
0.120078154 -0.08523235 0.048699383 0.12968332 -0.19839841 -0.12890363 0.07379392 0.11967582
-0.080772094 0.11177486 -0.16790466 0.12890205 -0.080768004 -0.05456917 -0.1090978 0.117025636
-0.073796734 0.11573163 0.093813464 0.036048986 -0.040381994 -0.16278431 0.13963869 0.096965626
-0.18025872 0.15121217 0.14680274 0.113058016 0.14742206 -0.11527315 -0.13886724 -0.04417718
-0.042398363 0.16843785 -0.16305305 -0.03857573 -0.15438065 -0.04709371 0.14604828 -0.12952058
0.096470304 0.14369293 0.097611494 -0.02181272 -0.0938867 -0.0402091 -0.10007236 0.11157845
-0.06013948 -0.17549825 -0.11758905 -0.08055767 0.21064048 -0.13858826 -0.11753296 0.122791976
0.08653969 -0.13969402 -0.109904885 0.11226202 0.12123136 -0.062317558 0.11895639 0.04884927
-0.112529464 -0.105881825 -0.11892309 -0.11821719 0.019441916 0.0963569 -0.10580803 0.11504549
-0.11827167 -0.17007142 -0.009371184 -0.13691834 0.15917213 -0.07053625 -0.11467104 0.18630287
0.13354662 0.115441255 -0.12477335 -0.16309644 -0.16538155 0.108712636 -0.17727414 -0.06543434
0.093958475 0.09565189 -0.14456941 -0.1442432 0.13636328 0.17547566 0.07670674 -0.16590694
-0.12459808 0.16083178 -0.10617629 -0.11052283 0.11192379 0.07553374 -0.06253272 -0.1475452
0.1398368 -0.14810687 0.087270595 -0.069764115 -0.12444891 0.085707486 0.13433148 -0.008210875
-0.03689974 -0.09947204 -0.10120965 -0.07653387 -0.15555419 0.09835662 -0.09454429 0.15991461
-0.102979116 -0.06447733 0.12235413 0.13705695 0.08561628 -0.08808075 -0.11842538 0.1501941
0.13097866 0.022602929 -0.0925791 -0.10256486 -0.07141745 0.075561166 -0.009434964 0.12971188
-0.058257222 -0.0030027854 0.116021596 -0.13138023 0.120083794 -0.11122908 0.12014679 -0.099213175
-0.084504105 0.14217046 0.14808595 -0.006998931 0.087852634 -0.11735051 0.06990891 0.0731999
0.012214888 0.04806443 0.061443 -0.08689978 0.095872656 -0.029767573 0.15028647 -0.10839267
-0.10107457 0.007512122 -0.032750804 0.1293632 -0.10933217 -0.13570538 -0.07519661 0.0940043
-0.08648865 0.022495912 0.09386236 -0.052539792 -0.1649041 0.1332323 -0.14111231 0.08369558
-0.051695663 0.053591415 0.07729349 -0.1102831 -0.084560335 0.11826733 -0.08035765 0.116962075
0.07123992 -0.09801299 0.14774945 0.008221151 0.10065242 0.06688592 -0.15848681 -0.15389785

fc3.bias f4 [10]
00000000: 1430 b43a b1ce e23d 3f66 58bc 5484 30bd
00000010: 67b6 e0bd 779e 093c 35c8 5cbd e8b3 90bd
00000020: 9993 ec3d ed9e 26bc
0.0013747239 0.110745795 -0.013207971 -0.043094948 -0.109722905 0.008399597 -0.05390187 -0.070655644
0.115515895 -0.010169727
