defended_model_differential_privacy.pth (torch, 254207 bytes, 18 tensors)

conv1.weight f4 [6, 1, 3, 3]
00000000: 84be b8be 6773 bd3c 496b 263e 067c 7c3d
00000010: e2a0 423e edd3 823b eeae 2a3e e34a 283d
00000020: cf4c 11be 2851 8b3e 909c ae3d 9d1b 4e39
00000030: 8992 653d cce3 c43d 64f2 7abe 7797 113e
00000040: 1bd8 bfbb 8af4 d6be 0497 253d 3698 863e
00000050: 3831 6c3e e856 0dbe efc1 e6bd fedf 8f3d
00000060: 2e88 66be d0f6 0ebe 6f8f 983d 03be e5bd
00000070: 74f7 5fbe 1669 56be 48ec 823e 75ea 023d
00000080: 96a8 89be 297a 4b3d 1138 9b3e 569a 64be
00000090: ce5f 4d3e 567e d43d 3ffe 34be 4d01 143d
000000a0: 10c4 3a3e 0274 34bd b526 18be 7527 de3d
000000b0: e218 5f3e 24ff 823e dab6 f03d e062 d73d
000000c0: 2ab7 15be b6d4 8e3d d277 993c 9d05 30be
000000d0: 359d 42be db74 10be
-0.36082852 0.023126317 0.16251864 0.061641715 0.19006684 0.0039925487 0.16668293 0.041087043
-0.14189456 0.27210355 0.08525956 0.00019655978 0.05604795 0.09613761 -0.24506527 0.14217936
-0.005854619 -0.41983443 0.040427223 0.26288003 0.2306565 -0.13802683 -0.11267459 0.07025145
-0.22512886 -0.13961339 0.07449233 -0.112178825 -0.2187174 -0.20938525 0.25570893 0.031961877
-0.26886433 0.049677048 0.30316213 -0.223245 0.20056078 0.10375659 -0.17675112 0.036134053
0.18238854 -0.044055946 -0.14858516 0.108473696 0.21786836 0.25585282 0.11753626 0.10516906
-0.14620653 0.06974165 0.018733893 -0.17189641 -0.19005282 -0.14107077

conv1.bias f4 [6]
00000000: 9f1c e0bd 6d10 99be e49a 073c cf94 0c3d
00000010: 75c1 803e bb2d 6dbd
-0.10942959 -0.29895344 0.008276675 0.034321602 0.25147596 -0.05790494

bn1.weight f4 [6]
00000000: 2bd8 213f e604 633f b7fc 383f 988c 7b3f
00000010: de43 383f 3bb5 743f
0.6322047 0.8867935 0.7226061 0.98261404 0.7197856 0.95589036

bn1.bias f4 [6]
00000000: ace4 54be fee2 50be 139c 60be 6079 fdbc
00000010: ef6d 85be 880e c7bd
-0.20790356 -0.2039909 -0.21934538 -0.030941665 -0.26060435 -0.097195685

bn1.running_mean f4 [6]
00000000: 18ca e4bd c58a 9abe 0689 1c3c f600 993c
00000010: 6a75 843e 495a 6dbd
-0.11171359 -0.30183998 0.009554153 0.018677216 0.2587083 -0.05794743

bn1.running_var f4 [6]
00000000: ad41 ee3d ec0b b33e 02f4 373e 231d 8d3e
00000010: e76a 413e ef45 303e
0.116336204 0.34970033 0.17964175 0.27561292 0.18888436 0.17214178

conv2.weight f4 [16, 6, 5, 5]
00000000: 5bcc bfbb 666f 863d 9eae e1b9 2e7b 87bd
00000010: 4768 01be 2d48 a83d d0ff d93d 8242 ff3d
00000020: 9934 b03d 1e72 563d 4c80 94bd 5792 693d
00000030: c782 173e a145 e33d fbbe ccbb 31d0 36be
00000040: 8ccb 86bd 3a13 7e3d 49a8 7e3d 4dc4 a5bc
00000050: cb76 04be 1fcd 21be 7e36 b1bd 25db 21bc
00000060: 3302 593c f027 b33b c4c7 56bd 4fe2 2ebe
00000070: b368 b7bd b8af babd 9fe0 893c e1ad 143c
00000080: 1147 ffbd 2682 52bd e11f e7bd bab9 6fbd
00000090: f716 ba3d 9738 893d 602e 07bd 3cb0 1a3c
000000a0: 0b78 12be 49e5 b53c 7ba1 bdbc 2776 a53d
000000b0: ca5f 12bd 6e28 fbbc 4908 22bd a5ae 31bd
000000c0: 40bd 243c fdd1 e43c e535 90bd b7cd 35bd
000000d0: 98c7 413c 2188 5d3e 4efa dc3d 5e56 5dbc
000000e0: ff84 8cbd 0225 dcbd 11dd d1bd bc7c 16be
000000f0: 8bce 153d dda3 d83b dd7b 983c c31a 04bd
00000100: 4c51 763d fefc eb3b 03d1 8f3d 3639 403d
00000110: c962 6b3d 08f7 ddbb ba23 9c3d 2310 23bd
00000120: 27c8 15bd f665 1dba fac4 6ebd 603e 5abc
00000130: e41a a4bc c9ae 943d 3d21 223d b767 903d
00000140: f0a6 1b3d 31d1 a23c 3cd0 88bd 759b 9cbd
00000150: abc9 613c c0b1 a03d 398e bdbd 16a5 d5bd
00000160: a89e 97bd ba15 3bbd 512f f63d 08ea f6bd
00000170: 04b0 82bd dbbc e0bd 6b37 023d 3acf af3d
00000180: b303 e83c 4239 253c 59ca adbd b030 10be
00000190: 83d0 9bbd e25a b93c 8cd9 5bbc 22c0 a4bd
000001a0: 7b87 92bd 9020 b43d 6d8e 073d 9ebd bd3b
000001b0: f9cf a3bc 425e 91bc 437f 4f3d e9e3 4f3c
000001c0: 2c7c 1a3b e895 e8bb 3742 963d 84c2 9a3c
000001d0: 7fe7 c2bc b6de 5d3d 736d 7d3c 16bc 20ba
000001e0: 2e75 07bd 9a40 80bd 9050 53bd 039a b2bd
000001f0: ffbf abbb 4fbb 7dbb 852a d53c 9a25 8f3d
00000200: 3409 6abc 88fe 5bbd e65d ecba a2cb 36bd
00000210: 2a10 813d 93cd 473d 02f9 293d 5024 cbbc
00000220: d9ae e83b b335 eb3c 1d32 fd3d 20cd 02bd
00000230: 7799 013e 056a f83d 78eb f63d c85f 873d
00000240: ded2 0c3d fdc2 153d 0155 653d 1fae 24bc
00000250: a0b2 7bbc 55d1 90bd 67ab e63b 5b97 803c
00000260: 59d6 963b f77b 93bd 312d 073d 9997 73bc
00000270: 8ed6 1b3d 1f44 b53b 7151 a9bd dbb6 71bd
00000280: a056 87bc ac07 2c3d 2325 6c3d 0d9a 873c
00000290: 3fb9 88bd af84 a6bd 86ee d73d 510a 423e
000002a0: 7f71 c03d cbfd ee3c b012 17be 0210 a2bd
000002b0: 9f54 5fbd f250 b5bc 1afa a5ba 188c bb3c
000002c0: 1e11 123c e3d7 bebd 26d4 39bd 0e1b 8ebd
000002d0: 3350 973d ee30 ce3c fc3a 26bd f810 b1bb
000002e0: 4b52 9ebd ccc5 6f3d f33f f63c 98d2 83bb
000002f0: eabf 2bbd d172 07be 35b4 3fbe 5342 11be
00000300: 7342 d7bd 76d2 843d 50c2 bdbc 91ce 22bd
00000310: aafe 4a3b 525b cbbd b0cd ccbd fcb9 823c
00000320: 7572 8dbd b0a8 c6bd 69ed afbd bc35 6d3d
00000330: a197 9e3d e525 85bd e925 d7bd b611 d4bc
00000340: 1ba5 99bd efc4 b1bd bf62 7d3d 3cda 403c
00000350: 1b24 923d b797 cfbd 6dbb 2fbd 7d6c 06bb
00000360: 120a 0abc fffe debd 804a 4c3d 175e a53d
00000370: 399b 1d3d 1ccd 173d 2f24 a53d 4e28 883d
00000380: eb5c 4ebc 498b d3bd 5fde b23d f9f0 283e
00000390: 46b9 c63d d957 2a3e 1509 67bc daca df3b
000003a0: 89bc 9dbc ec19 083e e8bc bb3d 368a 60bd
000003b0: ea5f e6bc 7caa 9c3c 2403 30bd 5922 833d
000003c0: ee65 cf3d 8a08 81bd fb0b dfbc bb3b 8a3b
000003d0: bba7 06bc 27f5 93bd 76db 91bd f107 d63c
000003e0: 3c1d 14be 7453 1fbd b9d6 50bd 1688 d7bd
000003f0: 2646 b2bc 9f7e 51bd cdde 32bd ab4a 8b3d
-0.0058532185 0.06564216 -0.00043045444 -0.066152915 -0.12637435 0.082168914 0.106444955 0.12463857
0.08603782 0.052354924 -0.07251033 0.057024326 0.14795981 0.11097265 -0.0062483526 -0.17852856
-0.06581792 0.062030055 0.062172208 -0.020235205 -0.12935941 -0.15800904 -0.08652972 -0.009878908
0.013245153 0.0054674074 -0.052436605 -0.17078517 -0.08955517 -0.09115547 0.01683074 0.009074659
-0.12464727 -0.05139365 -0.11285377 -0.058526732 0.090864114 0.06700247 -0.03300321 0.009441432
-0.14303605 0.022204058 -0.023148289 0.080791764 -0.035735883 -0.030658927 -0.039558683 -0.043379445
0.010054886 0.027932161 -0.070415296 -0.044385638 0.011827372 0.2163396 0.10789929 -0.013509361
-0.068613045 -0.10749246 -0.10247243 -0.1469602 0.036573928 0.006611331 0.01861375 -0.032252084
0.060136124 0.00720179 0.07022288 0.04692956 0.057467256 -0.006773833 0.07624002 -0.03981031
-0.036567833 -0.0006004268 -0.05829332 -0.013320535 -0.020032354 0.072599 0.03958248 0.07051032
0.038001 0.01987514 -0.066803426 -0.076468386 0.013780992 0.07846403 -0.092556424 -0.10431878
-0.07403308 -0.045675017 0.12020744 -0.12056357 -0.063812286 -0.10973521 0.031791132 0.08584447
0.028322076 0.010084452 -0.084858604 -0.14081073 -0.0760813 0.022626344 -0.013418566 -0.08044459
-0.07154747 0.08795273 0.033094812 0.0057904264 -0.01999663 -0.017745141 0.050658476 0.012688615
0.0023572547 -0.0070979483 0.07336848 0.01889158 -0.023792027 0.05416747 0.015467989 -0.00061315426
-0.033070736 -0.06262322 -0.051590502 -0.08720782 -0.0052413936 -0.003871638 0.026021251 0.06989594
-0.014284421 -0.053709537 -0.0018033355 -0.044627793 0.06301911 0.048780035 0.041497238 -0.024797589
0.0071009216 0.02871213 0.12363074 -0.031933904 0.12656198 0.121295966 0.12056631 0.06610066
0.034380786 0.03656291 0.05598927 -0.010051279 -0.015362412 -0.07071177 0.0070394757 0.015697172
0.004603189 -0.07201379 0.033002082 -0.014867687 0.038046412 0.0055318023 -0.08267487 -0.059012275
-0.016520798 0.041999504 0.057652604 0.01655295 -0.06675958 -0.08130776 0.105435416 0.18949248
0.09396648 0.029173752 -0.14753222 -0.079132095 -0.05452406 -0.022133324 -0.0012663037 0.02289395
0.008915214 -0.09318521 -0.045368336 -0.06938754 0.07388344 0.025169816 -0.040583596 -0.005403634
-0.0773054 0.058538243 0.03005979 -0.0040229075 -0.04193107 -0.13227393 -0.18721087 -0.14185457
-0.10510721 0.06485455 -0.023163944 -0.03974778 0.0030974546 -0.09929527 -0.10000169 0.015957825
-0.069065966 -0.09700143 -0.08590204 0.057912573 0.07743765 -0.065013684 -0.10505278 -0.025887351
-0.075021945 -0.0868014 0.06186175 0.011770781 0.07135793 -0.10136359 -0.042903353 -0.0020511441
-0.0084252525 -0.108884804 0.049875736 0.08074587 0.03847811 0.037060842 0.08063542 0.066483125
-0.012595396 -0.10329301 0.0873382 0.16498174 0.09703307 0.16635074 -0.014101286 0.0068296017
-0.01925494 0.13291138 0.091668904 -0.05481931 -0.028121907 0.019124262 -0.042971745 0.06403036
0.101268634 -0.06300457 -0.027227392 0.004218546 -0.008218701 -0.072244935 -0.07121937 0.026126834
-0.14464277 -0.038897946 -0.050986025 -0.10524003 -0.021761965 -0.051146146 -0.04366951 0.06801351

conv2.bias f4 [16]
00000000: 1a65 c5bc a665 143d 2436 97bd 0459 d9bc
00000010: 6a0a 0ebe 538a 9cbd 5116 73bd 59fa 47bd
00000020: c0b9 d13b 72c7 bbbd d989 0d3d a66d b2bd
00000030: ecb5 b83b ca49 0f3d 7223 93bd bd95 663c
-0.02409606 0.036229752 -0.073833734 -0.026531704 -0.1387116 -0.07643571 -0.059347454 -0.048822735
0.006400317 -0.091689005 0.03455529 -0.0871232 0.005636921 0.03498248 -0.07184495 0.014073786

bn2.weight f4 [16]
00000000: b875 9b3f 3eaa 933f d85f 7f3f 5f69 773f
00000010: 6c36 7e3f ebbc 913f f78a 913f 99be 893f
00000020: cc06 933f ff75 863f d145 853f ad1c 873f
00000030: be1d 893f 6217 773f aed7 6c3f ae2d 803f
1.21453 1.1536329 0.9975562 0.9664516 0.9930179 1.1385778 1.1370534 1.0761291
1.1486449 1.050476 1.0411931 1.0555626 1.0712202 0.96520054 0.925166 1.001394

bn2.bias f4 [16]
00000000: a7f6 31be 9240 48be c1a6 7bbe 5263 6dbe
00000010: 3abe 43bd 8897 9dbe ce95 6dbe 23cb 7abe
00000020: ed11 28be 3bfe 7abe 2149 23be 4a3c 56be
00000030: 1607 40be fa4e 9dbe 791a 24be a622 b3bd
-0.17379247 -0.19555882 -0.2457533 -0.23182419 -0.047788836 -0.30779672 -0.23201677 -0.24491553
-0.16413088 -0.24511044 -0.15945865 -0.20921436 -0.18752703 -0.30724317 -0.16025724 -0.08746843

bn2.running_mean f4 [16]
00000000: ea4e 4ebe be27 3e3e c8b4 fb3e dbbf 363e
00000010: 8543 1cbf 4a51 15bf f259 133e 2efe 3ebf
00000020: f7e4 c53e 67a2 4fbe 14ed 9c3e 3c2e 863e
00000030: 3c8f 003d ab23 9a3e 49b0 5fbf 2afb bbbd
-0.20147291 0.18569848 0.49161363 0.17846625 -0.61040527 -0.5832716 0.1438978 -0.746066
0.3865125 -0.20276795 0.30649626 0.2620715 0.0313866 0.30105338 -0.87378365 -0.09178765

bn2.running_var f4 [16]
00000000: b5ac 3f3f 692b 283f 024e d23e 6fec 0f3f
00000010: ef88 033f 3436 213f 3c71 ff3e e02e 163f
00000020: 586c 0a3f 39c9 333f 2f37 b93e b49d 963e
00000030: 414a 0d3f bffa a93e a7c2 2f3f 84cc 613f
0.74872905 0.6569124 0.4107514 0.56220144 0.5138082 0.6297333 0.49891078 0.58665276
0.5407157 0.70228916 0.36174914 0.29417193 0.5519143 0.33199117 0.6865639 0.8820269

fc1.weight f4 [120, 400]
00000000: b293 dabb 517a 593d e296 c7bd b7ce aabd
00000010: a6e1 ac3b 7f8f 4abd 8cb2 9e3c a126 a0bd
00000020: 678d 893d ed41 cd3d 642b 903d 088d 8c3c
00000030: 207c 17bd d845 ce3d 0a59 23bc b6b1 093d
00000040: 508d 2fbd e7ba 083b 0c88 4cbd 41c2 37bd
00000050: c701 58bd 71ed 5cbc 14ca 6bbc 02bf 813d
00000060: 81b4 103d ec9d f13b 3306 27bd 1308 c6bd
00000070: 3e5f 273c b6a9 11bd 6882 bf3d 5a0f b93b
00000080: 7c97 aebc 852e 453d cea4 4fbd a747 123b
00000090: 6c2e 74bc 45d7 453c 4072 a7bd 8007 02bd
000000a0: a4e9 4fbd e505 8ebd db4c debd 0cf7 fc3c
000000b0: 0f1e 9e3d 5691 4cbd 4c14 52bd ed71 b23d
000000c0: b452 b53d 0830 efbb 200d aabd 9983 133c
000000d0: 605c a33b 449b 673c c80e d3ba e802 fd3d
000000e0: bca0 2ebb d15c bb3b 1780 31ba c6f8 aebd
000000f0: 332d 5fbd c35e 5fbd 9852 2fbe ff89 a43d
00000100: 7402 883d 2b33 24bd 0a1c f83d 0331 163d
00000110: 7ba2 5e3d a27e 7e3b 8679 e5bb 0c43 343d
00000120: 4052 543d 2b65 0e3d 0e5e 5fbd 414c 03bb
00000130: 6682 75bb f44b 19bd 96f8 adbc 2e15 eabc
00000140: dafb 5fbd 5f9c 4bbc 30c2 6ebd 1a4d bbbc
00000150: b8ca ca3d ef35 243d 426f c7bc dc41 62bd
00000160: 32ae da3d 1a38 d73d a4da b0bd 96bb debb
00000170: 8870 b83c 22fc 4c3d 832a 14bd 15ca dd3b
00000180: 0c56 16b9 35b5 91bc 8d22 26bd 5a62 31bd
00000190: 9b93 3b3d 3106 91bc 4e4b 4fbc d6ce 533d
000001a0: 6536 8c3c 07e1 8dbc 7ac2 99bd a0d6 423d
000001b0: 36cf 5c3d 982e 463d 9c18 093d c6af 49bd
000001c0: 17f2 3cbd 4cff 28bd f251 403d 9da9 4e3c
000001d0: 04c7 2b3d 8859 703d 2fb9 9b3d 9781 94bd
000001e0: 413f 1abd 18a0 4cbc a707 763d f8a3 d1bc
000001f0: d321 93bd 29e0 c7bb 7ea2 b23d 3b0e c03c
00000200: 8555 2cbd 610d 4c3b 9898 d93c 8094 233c
00000210: f34d e1bb 6701 643d deae 01bd a8d6 2dbd
00000220: b35c 94bd 8c89 e5ba 2fe1 023d aeab 283d
00000230: 4c6e b83d e76b b53c c05d 8d3c 97ae 8c3d
00000240: 5467 23bd 772b 69bd 349e 013d c174 e8bd
00000250: b0a4 71bd cba8 84bd 6c71 76bd 5277 45bd
00000260: 2252 c03d 0f9e 923d 2c99 573c e10d aabc
00000270: e0cb 3b3d a237 89bc 6624 bf3a f327 b7bc
00000280: 83a4 bf3d 1dad 313b a85c 9abd 8a7b f2bc
00000290: 1b45 4dbc 8e08 d13d 11e7 903d 2f8f 88bd
000002a0: c2ea 233d e34e 3cbd 5da8 51bd e0fc 003c
000002b0: 7479 1fbc 82c2 c9b9 22f1 b23d aa65 48bc
000002c0: ff6f dabc 4069 9dbd 947c 843c 9127 c0bd
000002d0: 17c8 f1bc 615c 08be ee40 813b b5ba 94bd
000002e0: 03bb bf3c 495a 16bb 9780 30bd 976c a8bd
000002f0: 4bb0 7abd 83e0 743c 6ea0 2ebc e0fc a5bd
00000300: aa58 87bc d4bb 71bc ace6 b2bd ae3d 6ebd
00000310: b267 f5bc 86f1 c03c 1f53 20bd 3444 91bb
00000320: ceec 023d 5081 b7bd 8495 963d 1c93 6e3c
00000330: 1faa 05bd fade 223a 1f7a 343d 674c ab3b
00000340: 3aa3 99bd 0439 85bd 6042 8e3d 8ddd 223d
00000350: 6139 713c 66e5 15bd 993b 20bd b236 a1bc
00000360: 06f3 9abd 650e 03bd f09f 45bd 2d21 613d
00000370: f38a 5b3d 5fef 673c 70e0 aeba 88ef 72bc
00000380: 1657 743d 2524 4dbd f267 76bd 2117 873d
00000390: 9a8f 09bd 8280 9a39 0243 9d3c 5919 853d
000003a0: a535 b93d 46d1 693d 53db e9bc a664 183d
000003b0: 6075 a63c 6173 edbd 853d ea3a cf0c 20bd
000003c0: af1b 6fbd daa9 693d 3445 30bd 5ace 1fbd
000003d0: e40e d1bc 48f8 663c 1702 d43b 8d7d ee3c
000003e0: 3374 b93c 91d3 53bd 0445 69bd 9fd4 a23c
000003f0: 205e 0dbe a64f 6bbd fb02 07bd a1ee 903d
-0.0066704387 0.053095166 -0.097455755 -0.08340209 0.005275923 -0.049453255 0.019372247 -0.07819868
0.067164235 0.1002234 0.07039526 0.017157093 -0.03698361 0.100719154 -0.009969959 0.033616744
-0.042859375 0.0020863356 -0.049934432 -0.04486299 -0.05273607 -0.013484345 -0.014391441 0.0633526
0.035328392 0.007373562 -0.040777396 -0.09669509 0.010215579 -0.03556224 0.09351045 0.005647582
-0.021312468 0.048140068 -0.05069428 0.002232054 -0.014903646 0.01207525 -0.08176088 -0.031745434
-0.050759926 -0.06934718 -0.10854503 0.03087952 0.07720577 -0.04994329 -0.051288888 0.08713136
0.08853665 -0.007299427 -0.08303285 0.009003543 0.004985377 0.014136139 -0.0016102428 0.1235407
-0.0026646098 0.0057178517 -0.0006771101 -0.085435435 -0.054486465 -0.05453373 -0.17121351 0.08034133
0.06641093 -0.04008786 0.12114723 0.036667835 0.054354172 0.0038832803 -0.007003012 0.044009253
0.051836252 0.03476445 -0.054533057 -0.0020034465 -0.0037461757 -0.03742595 -0.0212367 -0.028574552
-0.054683544 -0.0124274185 -0.05829066 -0.022863913 0.09901947 0.040090498 -0.024345044 -0.05523859
0.10677756 0.105087474 -0.086354524 -0.0067972643 0.022514597 0.05004514 -0.036173355 0.006768475
-0.0001433717 -0.017786602 -0.040560294 -0.043306686 0.045795064 -0.017703148 -0.012652231 0.051710926
0.017115781 -0.017319215 -0.075077966 0.047567964 0.05390855 0.04838428 0.033470735 -0.049239896
-0.046129312 -0.041259095 0.04695315 0.012613681 0.041937843 0.058679134 0.0760368 -0.0725128
-0.03765798 -0.012489341 0.06006589 -0.025590882 -0.07184186 -0.00609972 0.08722399 0.023444286
-0.042073745 0.0031135904 0.02656202 0.009984136 -0.0068757473 0.0556654 -0.031660907 -0.04244104
-0.072442435 -0.0017512306 0.031953033 0.04117935 0.090054125 0.022146178 0.017256618 0.06869238
-0.039893463 -0.056926217 0.031645015 -0.11350394 -0.05899495 -0.06477507 -0.06016676 -0.048209496
0.093906656 0.071590535 0.013159078 -0.020758571 0.045848727 -0.01675016 0.0014582991 -0.022357916
0.0935755 0.002711124 -0.07537204 -0.029599924 -0.012528683 0.1020671 0.070753224 -0.06667935
0.040018804 -0.04597367 -0.051185954 0.00787279 -0.0097335465 -0.00038482627 0.08737399 -0.01223127
-0.026664732 -0.076860905 0.016172685 -0.09382547 -0.029514356 -0.1331649 0.003944508 -0.07262174
0.023404604 -0.0022941998 -0.043091383 -0.08223837 -0.061203282 0.014946106 -0.010658367 -0.08104873
-0.01652177 -0.014754254 -0.087354034 -0.05816429 -0.029956672 0.023552667 -0.03914177 -0.0044331793
0.031964116 -0.08960211 0.073527366 0.014561441 -0.032632943 0.00062130357 0.044061776 0.0052276137
-0.07501836 -0.065050155 0.06946254 0.03976207 0.014723153 -0.036595725 -0.039119337 -0.019679401
-0.07565884 -0.03199615 -0.04824823 0.05496328 0.05359931 0.014156192 -0.0013342034 -0.0148276165
0.059653364 -0.0500833 -0.060157724 0.06596208 -0.033584215 0.00029468915 0.01919699 0.06498975
0.09043435 0.057084344 -0.028546965 0.03720536 0.02031964 -0.115942724 0.0017871117 -0.039074715
-0.05837601 0.05704675 -0.043034747 -0.03901515 -0.025519796 0.014097281 0.0064699757 0.029112602
0.022638416 -0.051715437 -0.056950584 0.019876776 -0.13805437 -0.057449006 -0.032961827 0.07076765

fc1.bias f4 [120]
00000000: b514 403d a9b1 9ebc 2cab 95ba 97b4 b2bd
00000010: 7130 5ebd 798f 133e f505 363e d4a7 84bd
00000020: 57ef 58bd 3163 8b3c eced 253d 37ce a3bd
00000030: 9c7a f2bc 964f b3bd 0a2e 67bd 174a 663c
00000040: ec5e 7ebd 6c11 cd3b d9ee aebc f228 b7bc
00000050: 6c66 80bd 25ab 84bd cdbd 7a3d 1728 cbbd
00000060: 3487 c33c 429e b23c 6d05 f43d cecb f53c
00000070: 1a81 d53d 49b6 273d d0fe 5dbd abc4 a0bc
00000080: db47 02bc 50a4 073e d7e4 12be 9928 f7bc
00000090: 9bd3 5d3d 55b2 cebc 2d0f 4cbc d7ff debc
000000a0: a23f f1bb a371 e23c 1afe 4cbd 79e9 963d
000000b0: bbaf b1bb 6f76 85bd dc5e 28bb a2c8 6abd
000000c0: 4de1 a13d 28a5 00bc 81fe 86bd 84fc ba3b
000000d0: 1f33 ddbd 6cb0 bf3c cf0f 85bd fb27 ad3d
000000e0: 5b25 a9bd 1cb3 323d e6a9 8c3b 792b ca3c
000000f0: 8a8d f7bc 7b10 73bc 4164 19bd e007 373d
00000100: f24b 583d 3f96 d43c acff f9bb 1044 373e
00000110: de6a 6b3d 6fc2 073e 2495 07bc 6f45 2e3e
00000120: 402c 163d 2100 c03c 68ee 133d 683a 6ebd
00000130: a919 8b3d 10c8 673c aa60 6dbb 8ef8 4e3d
00000140: 5c83 6c3d 0a7b 65bc e75a 85bc 2428 0d3d
00000150: 5f65 9dbc 0854 78bd 1174 17bd 5275 e63d
00000160: cc0c 98bd 6ac0 753d a6b2 9fbd 7a42 a83d
00000170: f8c4 9ebc a45d 393c c755 b1bd d00f 703d
00000180: a2b5 633d 43e5 913d 1a50 943c a41f 71bd
00000190: 6ee0 1d3d d3d0 bf3b a502 823d 60ee f4bd
000001a0: ea92 a9bc 449f a1bc 7a6e f43d 5cb4 873d
000001b0: d66d a33d 766c 313d b9f6 283c 5769 853d
000001c0: 4601 00bb d71e 693d 6bda 5bbc 7605 823d
000001d0: 3c3e 36bd e4c6 2d3d 51a7 c23d a247 6f3d
0.046894748 -0.019371824 -0.0011418811 -0.08725851 -0.054245416 0.14410199 0.1777571 -0.06477323
-0.052962627 0.017015072 0.040510103 -0.07998317 -0.02959948 -0.08755414 -0.05644039 0.01405575
-0.062102243 0.0062581804 -0.021354126 -0.022358391 -0.062695354 -0.06477956 0.061216164 -0.09919756
0.02386818 0.021803979 0.119150974 0.030004408 0.10425015 0.040945325 -0.054198086 -0.019625029
-0.007951702 0.13246274 -0.14345108 -0.030170726 0.05415688 -0.02523152 -0.01245479 -0.027221603
-0.007362322 0.027642077 -0.050047018 0.0736875 -0.00542256 -0.0651673 -0.0025691306 -0.057320245
0.07904301 -0.007851876 -0.065915115 0.0057063717 -0.10800766 0.023399554 -0.06497156 0.08454891
-0.08259078 0.043627843 0.0042927144 0.024678933 -0.030218858 -0.014835472 -0.037449125 0.044685245
0.052806802 0.02595055 -0.0076293554 0.17897058 0.057474963 0.13257764 -0.008275304 0.17018674
0.036663294 0.023437561 0.036116034 -0.05816117 0.06792004 0.01414682 -0.0036220946 0.05053001
0.05774246 -0.014006386 -0.016278697 0.03446211 -0.019213377 -0.060627013 -0.036975924 0.11252846
-0.07424316 0.059997953 -0.07797746 0.082158044 -0.019381031 0.01131383 -0.08658939 0.05860883
0.05559314 0.07123806 0.018104602 -0.058868065 0.03854411 0.005853751 0.06348161 -0.11959529
-0.020699937 -0.019729264 0.11935134 0.06626198 0.07979934 0.043316327 0.0103127295 0.065142326
-0.001953201 0.056914177 -0.013418774 0.06348698 -0.044492945 0.042426005 0.09504569 0.058417924

fc2.weight f4 [84, 120]
00000000: dc94 003e 69a3 c73d fbb1 793d a7cc ebbc
00000010: eca2 033d 6e5b 41bb ee67 b3bd 7677 5e3e
00000020: 593d 803d 05ac 903d 62d8 eebc 70d9 84bd
00000030: f218 3fbd 3cbe 173d 6e7e f13d 9840 653d
00000040: 38cf 89bc 9dff eabd f140 d63c dafe ddbd
00000050: 2214 d33c 6962 953d 2efa 173c 8963 5fbd
00000060: 7100 0a3e 23c1 ddbd e342 bf3c 7a25 0e3c
00000070: a9b2 e3bc f418 18bd 6fe6 ffbc 76f2 83bc
00000080: b777 4cbd acc1 c9bc e804 963d eb6b b23b
00000090: f519 e1bd 00fb 6f3d 9b22 9f3d 2873 933c
000000a0: de6b bf3d 341f a33d c3df 433b b8e5 80bd
000000b0: 070c dabc 9d7d 6bbd ba8d d03b af34 0bbd
000000c0: 4937 803c 981a 81bb dbc4 813c 447b 50bc
000000d0: 98ea 223b d406 bf3d 35aa ba3c e721 1bbd
000000e0: 80de 0f3e 143e 29be f21d 2d3e d5db e5bd
000000f0: 008e 723d 6733 7a3c d0af ba3b e3b7 713d
00000100: ccd4 7d3c d790 0ebd c7d0 403c db4d 0e3b
00000110: 2e92 36bc 4d50 c7bc 4b63 0e3d e566 ff3b
00000120: 895e 18bd 1eda d2bd 97e5 1cbd db8d 853c
00000130: f481 b83d bfa3 ecbc 76fb 95bd 460f 10bd
00000140: f58b 8f3d 5647 e13d 02fa 3cbd b2ff 21bc
00000150: 57c9 8d3c 8fd3 7cbd eaac a83d bb15 2ebd
00000160: f46d 0b3d 109c 81bd af61 c33c 9f89 723e
00000170: 0c07 e7bd 14a3 c83d 382f 66bd 4b75 23bd
00000180: 4ad1 f63d 88f0 d43d 88cb d9bb 18b9 a5bc
00000190: 3aee 843c f27b b23c 0c6f 823c 0531 43bd
000001a0: 6287 0d3c e04a 703d 0444 83bd ed14 09bd
000001b0: 390b e9ba 60a1 3f3d d8d0 47bd 8fd8 4c3d
000001c0: 0358 be3d 0a8b 33bd bc93 9f3b 0870 db3c
000001d0: 2d89 c43c 0e8c 2b3e 0c5a ab3d c6ac 96bc
000001e0: 4245 663d 00f4 c63d 950d 4a3d 475d 993d
000001f0: 52da 21bd b145 4b3d 0de8 c7bd c5cd c13b
00000200: 5b28 2ebe 2849 3e3d def3 b5bd 52e8 e8bc
00000210: a881 a9bd c083 1f3d 8586 e03b 9cde 9ebc
00000220: 1ca9 803d a6e7 b13d d6fe 2c3e 3bc4 51bd
00000230: 115b 25bd e748 343d 1535 113d 0808 4f3d
00000240: 2fff 3a3d d83f 9abd 5524 043c c5b0 1bbe
00000250: 48c6 94bc a3da 89bc 73ba 1abd bd89 c63c
00000260: a779 e23c 130e 923d 26ed 5fbd d04c 71bd
00000270: f2c9 8c3c 8c3a cbbc f616 60bc 7964 87bd
00000280: 3b1f 0e3e 58e9 a83c ff0e bdbb 1004 42be
00000290: 2e1c d83c c664 6cbc 8afd f23d a35f a0bd
000002a0: ddd1 e93c d677 483d 6640 a7bd 791f e93d
000002b0: db06 19be 801f 6bbd 10fe 85bd 3412 39bd
000002c0: ae90 203d 0ac8 03bc c61e 0a3d a3b0 dabd
000002d0: 135c d9bb 7055 053c a882 b53b c70d ba3c
000002e0: a9ce 2f3d 94b0 0e3d 1deb 663d ed18 60bd
000002f0: 8ac6 2abd a9a5 ef3d f3b4 993d b2f7 c43c
00000300: 7028 103d 87e4 473d 5c94 bd3c 3182 52bc
00000310: 0c0c d83d 2a7c 273b 59b2 863d f0ff 9b3b
00000320: 2e9c e2bd fa36 523d 11f3 33bc 66e5 933d
00000330: 02f7 04be 1aaf 9a3d 5c2a f6bc bda4 57bc
00000340: 495f 98bd 939c 643d 9a19 5e3d fb01 0e3d
00000350: 30e1 233d 483f 01bd 6b65 4cbc 8e1f 933d
00000360: 85ba 003c 095a 50bd 6530 b4bc bead 35bd
00000370: a558 c83d e2e3 2c3c 6b19 8ebd 0763 2d3d
00000380: 682a de3b 73a1 48bc b4be fdbc 797f 903c
00000390: e51d f4bd 478b 983d d4f3 b1bd 178e 103d
000003a0: 6a6e 8c3d f759 dd3d cea6 673c a5f0 793d
000003b0: b41b 123d ea6e 093e 69d4 77bd d504 483d
000003c0: f2e6 2cbd 6f46 afbd d95c 0fbb 2660 ecbd
000003d0: 2f56 f2bd 858a a7bb cf67 eabc e7f7 b33d
000003e0: c133 d8bc d665 46bd fdb6 9abd a855 22bd
000003f0: bea3 e33c 7a8f 04be cda5 66bd 8876 143d
0.12556785 0.09747965 0.06096075 -0.02878411 0.032137796 -0.002950396 -0.087600574 0.21725258
0.06261701 0.0706406 -0.029155914 -0.064867854 -0.04665465 0.037046656 0.11791693 0.055969805
-0.016822442 -0.114745356 0.026154013 -0.10839625 0.025766436 0.07294161 0.009275956 -0.054538283
0.13476731 -0.108278535 0.023347324 0.008675927 -0.027795153 -0.037133172 -0.031237809 -0.016106825
-0.049918856 -0.024628483 0.073251545 0.0054449937 -0.10991279 0.05858898 0.07770272 0.017999247
0.09346746 0.07964936 0.002988801 -0.062938154 -0.026617063 -0.05749284 0.0063645514 -0.03398579
0.015651362 -0.003939938 0.015840938 -0.012724701 0.0024859067 0.09327474 0.02278624 -0.03787413
0.14049721 -0.16527587 0.16905954 -0.1122357 0.059217453 0.015271044 0.005697228 0.05901326
0.015492629 -0.0348061 0.011768526 0.0021713886 -0.01114325 -0.024330283 0.034762662 0.0077942484
-0.03719953 -0.10295509 -0.03830489 0.016302994 0.090091616 -0.028886674 -0.07323353 -0.035170816
0.070091166 0.109999344 -0.046136864 -0.009887623 0.01730792 -0.061725195 0.08236106 -0.042501193
0.034040406 -0.06328595 0.02385029 0.23685311 -0.11280641 0.0979673 -0.056197375 -0.03990678
0.120516375 0.1039744 -0.0066465773 -0.020229861 0.016226877 0.021787617 0.015922092 -0.04765417
0.008638235 0.058665156 -0.06409457 -0.033467222 -0.0017779834 0.04678476 -0.048783153 0.050011214
0.09294131 -0.04383377 0.004869906 0.02678682 0.023991192 0.16752645 0.083667845 -0.018392932
0.056218393 0.09714508 0.04932936 0.07488494 -0.039514847 0.04962701 -0.09761057 0.005914422
-0.17007582 0.046456486 -0.088844046 -0.028431091 -0.08276683 0.038944006 0.0068519735 -0.019393258
0.06282255 0.086867616 0.16894087 -0.05121253 -0.04037005 0.044014838 0.035451014 0.05054477
0.04565352 -0.075317085 0.008065303 -0.15204151 -0.018160954 -0.016827887 -0.037775468 0.0242356
0.027645899 0.07131591 -0.05466952 -0.058911145 0.017186139 -0.02480819 -0.013677349 -0.066109605
0.13879101 0.02061908 -0.00576961 -0.18946862 0.026380625 -0.014428323 0.11864765 -0.07830741
0.028542453 0.04894241 -0.0816658 0.11382956 -0.14944021 -0.057403088 -0.06542599 -0.045183375
0.039200477 -0.0080432985 0.033720754 -0.10678222 -0.0066332906 0.008138046 0.005539257 0.022711648
0.042921696 0.034836367 0.056376565 -0.05471127 -0.041693248 0.11701519 0.075052164 0.024043892
0.035194814 0.048801925 0.023142032 -0.012848423 0.10549173 0.0025556185 0.06576986 0.0047607347
-0.11064945 0.05132196 -0.0109832445 0.07221489 -0.12984851 0.07552929 -0.030049495 -0.013161835
-0.07440049 0.055813383 0.054223634 0.034669857 0.040009677 -0.03155449 -0.012475352 0.07183753
0.00785697 -0.050867114 -0.021995733 -0.044355147 0.097825326 0.010552378 -0.06938442 0.042330768
0.0067799576 -0.012245524 -0.030974723 0.017638909 -0.119197644 0.0744844 -0.08689085 0.035291757
0.06856997 0.10808175 0.01413889 0.061020512 0.03567095 0.13421217 -0.060505304 0.048832733
-0.042212434 -0.08558356 -0.002187541 -0.11541776 -0.118328445 -0.0051129484 -0.028613953 0.08787518
-0.026391866 -0.048436962 -0.075544335 -0.03963247 0.02778804 -0.12945357 -0.056310464 0.036245853

fc2.bias f4 [84]
00000000: 706b f1bd 0f59 1c3e 521a d7bc da3c bf3c
00000010: 1338 863d c68c 0d3d 4fab 883d f958 0c3e
00000020: 6293 ec3a 5099 ec3d 5d8d 553d 45b5 c1bd
00000030: 028a 093d 6109 cabd 65b5 b43d 3190 3cbc
00000040: bcb1 6d3c 8d72 7f3d 7d35 b93c 6a85 6b3d
00000050: 4061 e8b8 4e9a acbd a24f f63c c3d0 dc3d
00000060: 94eb 3f3d 5342 d23d 7f40 d13d 9823 983d
00000070: 1a95 aebd ff39 95bd f810 c4bc 147f b4bd
00000080: c7dd 4bbd 2690 953d c501 1b3e 93ac 68bd
00000090: da42 89bc 4ac4 7a3d f6a3 e03d 5d50 163d
000000a0: f814 923b b18c a4bd 144a 4a3c de79 183e
000000b0: a318 fa3c d331 0abb 5f7b 70bd 0d51 71bd
000000c0: 4eb1 afbd 48ea d83d 67eb 093d 4d31 913d
000000d0: dd80 46bd 516b a03c ce4d 8c3c af6c 383e
000000e0: 2883 e43c b9a0 053d f6ec d0bc d580 033e
000000f0: 80d5 a03c 9173 513d 7778 a73d 8824 733d
00000100: 319f d43d 2ba6 d5bc dbe1 71bc 4492 c83b
00000110: 1374 0f3d 5df2 a93b 56ec 783d fb14 cd3d
00000120: a5a7 453b cccd a6bb 6b8d cb3b 7ceb 563c
00000130: 0e52 2ebb bfde fd3d 1e93 983d de57 c13d
00000140: bb02 043d 67e1 313d efe9 783d c709 e43d
-0.1178807 0.15268348 -0.026257668 0.023344446 0.06553664 0.03455808 0.066732995 0.13705815
0.0018049295 0.115526795 0.052136768 -0.094584025 0.03357888 -0.0986507 0.08823661 -0.011508987
0.014507707 0.062365104 0.022608513 0.05750028 -0.00011080736 -0.08427869 0.030067269 0.10782006
0.046855524 0.102665566 0.1021738 0.07428664 -0.085245326 -0.072864525 -0.023933873 -0.08813301
-0.04977205 0.07302885 0.15137394 -0.056805205 -0.01675551 0.061222352 0.10968773 0.036697734
0.004458066 -0.08034647 0.012346763 0.14890239 0.030529326 -0.0021086826 -0.058711406 -0.058915187
-0.0857874 0.105915606 0.033671763 0.070894815 -0.048462737 0.019582422 0.017126944 0.1801021
0.027894571 0.03262398 -0.025503617 0.12842114 0.019633055 0.051135603 0.08177274 0.05936101
0.10381926 -0.026080212 -0.014763321 0.006120952 0.035022806 0.0051863627 0.060772263 0.10013767
0.0030159738 -0.005090451 0.0062119267 0.013117667 -0.0026599201 0.12396001 0.074499354 0.094405875
0.032229166 0.04342785 0.06076997 0.111346774

fc3.weight f4 [10, 84]
00000000: 64a3 bcbd cca8 37bd a4e7 1fbe d3cd cd3d
00000010: 83a4 2ebd 764c b13b 6b9a 4d3d 0112 28be
00000020: aeb6 88bd dc96 e23d a2fd 28be 05d2 d33d
00000030: 79e8 01be bc32 53ba b4d8 33be 7c58 07be
00000040: 5ba5 b6bd 2561 b7bd 5bba f5bd 7302 0dbe
00000050: 3a3b 7dbe f86b 013e 829c 73be ebe5 5ebe
00000060: 1e52 dabc 61e8 89bd 84fd f73d c9df 12be
00000070: 961d 363d aeda 623e 2e5f a83d 805e b03d
00000080: da48 133e 8e42 273e a6bf 193e 364c 92bd
00000090: 58fd 513d 8c2d 4abc 64e3 2dbd 3244 e83d
000000a0: 62a1 13be 78f4 5cbe 0ec5 9f3d 1376 1fbe
000000b0: bb2f b03c 66e9 e33d 1ef4 093e e64a 4f3e
000000c0: 2b97 60be 2ab3 1c3e 410b e83d 7eb6 3b3d
000000d0: a48a 0d3d 903a bb3d d14c ef3d 4798 9b3b
000000e0: cb11 4f3d 15bd e73c f67a 703c 2775 7abe
000000f0: 08fe d2bd aa53 7dbd d95f d23d aebc e83d
00000100: 1052 f03d 87ce 6abd 69b2 053e 72c2 21be
00000110: 24f4 b1bd e5ba 02be 3589 5fbd 743a f83d
00000120: 7696 f83d 24a2 23be 70ea 46be abd9 bbbd
00000130: aada 2a3e 37c4 9b3d 0192 4ebe 6f6e c8bb
00000140: 9cb2 e0bd 9040 5e3d 9227 2a3b 1929 b8bd
00000150: cb39 f03d 1635 0e3e 316c 3a3d af2c 85be
00000160: 9ccb 923d 2a83 54be b0aa 38be 1dc3 dabd
00000170: bfa5 86bd f334 453d 1f4f 35be 048d b2bd
00000180: af69 3c3e 3931 68bd ebbb f4bd 8bda eb3d
00000190: db09 893d c393 213e a906 07be b008 59be
000001a0: 0d5d f1bb 293a 39be 6b24 61bd 15e9 58be
000001b0: 194b 343e 8694 e6bd 2078 1fbe b21f bebd
000001c0: b44a 2fbe 7cee 82bd b456 e4bd 59c3 9dbd
000001d0: 2be6 87bd 3a70 6bbd 8aaf d5bc 12ac a53d
000001e0: e475 2ebe dfb5 6d3e ae63 033e 2430 3d3d
000001f0: e520 123e 3023 d43d e241 71be 29dd 063e
00000200: 6eaa 453d a2e3 1ebe ae7d 05be 51bc 833d
00000210: 7b2c 7ebd 34c8 d9bb 949e af3d f20c 0cbd
00000220: a979 58be de25 75bd eccd a63d 3cac 633e
00000230: 8c19 9fbd b1d5 863d bbda 0c3d 9344 213e
00000240: 51cd 2a3e 62f3 7dbc 72de 01be b16f 9bbe
00000250: 68a4 29be 5ae1 9f3b ea43 d83d 97d0 343e
00000260: 6960 bc3d 7359 f13d a668 e3bc 9b84 b93d
00000270: 9c57 a3bc c126 1cbe 9cab 21be 0e45 dd3d
00000280: 601f eabd c87d 063d b9e1 19be fc99 213e
00000290: 9375 703d 83ea 83be 2cd0 643e 09c0 1b3e
000002a0: 8b17 c33d 46a9 4fbe 002b bc3d 6873 5a3d
000002b0: b4d7 783d 371b ecbd fb93 723d df04 73bd
000002c0: 95f5 383e 1244 e1bd 9aee 143d 29a0 00be
000002d0: 61e2 143e 3c52 ad3d 4b95 54bd 0f11 cc3d
000002e0: 6690 ab3d e602 753d d9a6 aabd b6bc 903d
000002f0: 38c7 003e 365a 49be 5d7b 5b3d 4490 ccbb
00000300: b26e d83d a37d ddbb ab39 31be cda5 14be
00000310: 0cd2 073b ad44 0fbd 88f0 9dbd 9523 55bd
00000320: b80f e7bd 80a5 fdbd 713c e23d bee5 243e
00000330: faf5 ccbd 74a0 93bb 0284 43bd b667 b73d
00000340: ae15 eb3d 1faf 283d 4aab 02be 5dd8 2ebe
00000350: 658c 1b3e 6dc9 8f3d f431 933d 4e6e d9bc
00000360: 7845 cbba 9c6a da3d 4cb7 d33d 1254 20bd
00000370: 2110 0c3e e3d1 32be 6bf9 313e 9a12 233e
00000380: 2b0a e53d c946 e53c 53dd fa3d ac38 19be
00000390: a6b8 0ebe 047b 9bbd 72eb 99bd f502 7c3b
000003a0: 0654 363d 583e d93d e7f9 bf3d 92bf 8ebd
000003b0: bbcf 793d 9e25 dc3d 4b6e 72bd 0784 fbbd
000003c0: d296 e43d c989 11be 081c 00be 2acd 98be
000003d0: 6bb0 fb3c bfd2 81bc c6b7 56bc 3769 f13d
000003e0: 0d51 2fbe ab76 ed3c 7f75 a4bd 6124 563d
000003f0: 42cc 723d 7d76 7b3d a1a7 993d f598 993d
-0.09210852 -0.04483871 -0.15615708 0.100490235 -0.04263736 0.005410726 0.050196093 -0.16413118
-0.066754684 0.110639304 -0.16503003 0.103427924 -0.12686338 -0.0008056571 -0.17563134 -0.13217348
-0.08918258 -0.08954076 -0.11998435 -0.13770466 -0.24729624 0.12638843 -0.23790172 -0.21767394
-0.026650485 -0.06733776 0.12108901 -0.1434318 0.04446181 0.22153732 0.08221279 0.086117744
0.1438326 0.16333982 0.15014514 -0.07143442 0.051266998 -0.012339961 -0.042453185 0.11341132
-0.14417031 -0.21577632 0.07801257 -0.15572385 0.021507135 0.111285016 0.1347203 0.20243415
-0.21932666 0.1530272 0.113302715 0.045828335 0.034556046 0.09142029 0.116845734 0.0047483775
0.050554078 0.028288404 0.014677754 -0.24458753 -0.10302359 -0.061847366 0.10272188 0.11364113
0.11734402 -0.057325866 0.1305634 -0.15796831 -0.08689144 -0.12766607 -0.05457421 0.12120524
0.12138073 -0.1597982 -0.19425368 -0.09172376 0.16684976 0.076057844 -0.20172884 -0.0061166803
-0.10971567 0.05426079 0.0025963527 -0.08992214 0.11729773 0.13887438 0.045513336 -0.26010653
0.07167742 -0.2075316 -0.18033862 -0.10681746 -0.06574582 0.0481462 -0.17705964 -0.08718303
0.1839969 -0.056687567 -0.11949905 0.11516293 0.06691333 0.15779023 -0.13186134 -0.2119472
-0.007365829 -0.18088593 -0.05496637 -0.21182664 0.17606772 -0.11258797 -0.15573168 -0.09283389
-0.1711834 -0.063931435 -0.1114935 -0.07703275 -0.06635698 -0.057480074 -0.02608468 0.080894604
-0.17037159 0.2321391 0.12830994 0.04618849 0.14270361 0.10358274 -0.23560289 0.13170303
0.048258238 -0.15516523 -0.13036224 0.06432403 -0.06205414 -0.0066461805 0.08575168 -0.034192033
-0.2114016 -0.059850566 0.08144745 0.22233671 -0.077685446 0.06583727 0.034388285 0.15748815
0.16679884 -0.0154999215 -0.12682512 -0.3035865 -0.16566622 0.004879159 0.105598286 0.17657696
0.09198076 0.11784639 -0.027759861 0.090584956 -0.019939236 -0.15249158 -0.1578812 0.10804187
-0.114317656 0.032834798 -0.15027513 0.15781397 0.058705878 -0.25764856 0.22345036 0.15209974
0.09525975 -0.20279416 0.09187889 0.053332716 0.060752586 -0.11528628 0.059223156 -0.059330817
0.18062432 -0.109993115 0.03636036 -0.12561096 0.14539482 0.084629506 -0.05190019 0.09964191
0.08377151 0.059817217 -0.08332605 0.07067244 0.12575996 -0.19663319 0.053584445 -0.0062427837
0.105679885 -0.006759362 -0.17307155 -0.14516373 0.0020724563 -0.034977604 -0.07711893 -0.052035887
-0.11282295 -0.12385082 0.110466845 0.16103265 -0.10007854 -0.0045052115 -0.047733314 0.08955328
0.114787444 0.041182633 -0.12760654 -0.17074724 0.15190275 0.07020841 0.07187262 -0.026541855
-0.0015508374 0.106648654 0.103376955 -0.039142676 0.13678028 -0.17462878 0.17380302 0.15925065
0.1118358 0.027987855 0.122492455 -0.14963025 -0.13937625 -0.07591823 -0.07515611 0.003845391
0.044513725 0.10607594 0.09373837 -0.06970133 0.060989123 0.107493624 -0.059187215 -0.122810416
0.11161579 -0.14212717 -0.12510693 -0.29844028 0.030723771 -0.015847562 -0.013105338 0.11787646
-0.17120762 0.02898725 -0.08030223 0.052280787 0.059276827 0.061392296 0.07502676 0.07499877

fc3.bias f4 [10]
00000000: 3da6 cb3c 6270 523e 7268 b2bd 2aa8 7abc
00000010: ff0a 96bc 6c84 363d c524 d3bc 9ea6 ce3c
00000020: 83de 5abd ff39 073e
0.024859542 0.20550683 -0.087113276 -0.0152988825 -0.01831579 0.04455988 -0.025774369 0.025225934
-0.05343486 0.13205718
