extracted_model.pth (torch, 424381 bytes, 8 tensors)

conv1.weight f4 [8, 1, 5, 5]
000000 99 5e 51 be a2 7a 37 bc a2 9c fb 3d d8 c2 14 3e
       -0.20446242 -0.011198672 0.12285735 0.14527452
000010 c1 87 93 3d 15 06 f8 3b f4 3a c2 3d 37 d5 df bd
       0.072036274 0.0075690844 0.09483901 -0.109293394
000020 bd 5a 33 be 7f 90 da bd 6c 70 2a 3e ac 0a c4 bd
       -0.17515083 -0.10672092 0.16644448 -0.09572348
000030 62 44 9b 3c 50 b7 53 3e ef b8 1e 3e 67 8b 20 be
       0.018953506 0.20675397 0.15500234 -0.15678178
000040 23 76 fb bd 85 57 4c 3e 17 f6 f7 3c da 70 58 be
       -0.12278392 0.19955261 0.030268712 -0.211368
000050 fa 8a 19 be 6c 30 04 3d 65 f8 43 be 66 bd 99 3b
       -0.14994422 0.03227274 -0.19137724 0.0046917675
000060 70 a4 a1 bd b9 e5 05 be 2a 23 09 be 7c 51 2d 3e
       -0.07892692 -0.13075913 -0.1339232 0.16925615
000070 2a 80 57 3d 1d 43 a7 3c c2 1c 8c bd ad 3e 53 3e
       0.05261246 0.020417744 -0.068414226 0.20629378
000080 4a 4b 47 be b4 b0 2a 3e 87 43 01 3d f5 c2 09 be
       -0.19462314 0.1666897 0.03155854 -0.13453276
000090 57 17 ff bd cf 3b 85 3b a7 b7 21 be e5 e0 b7 bc
       -0.124556236 0.0040659676 -0.15792714 -0.022446105
0000a0 63 52 1c 3e fc 38 a6 3d 0d e1 f7 3d ab 79 3d be
       0.15265803 0.08116338 0.12103472 -0.18503444
0000b0 99 f8 1d 3e 92 36 08 3c 21 c6 e5 3d 44 76 7c bd
       0.15426864 0.008313792 0.11219431 -0.061636224
0000c0 b8 5b fb 3d b1 21 c7 3c e1 6a 39 be f5 36 47 3e
       0.12273353 0.024308058 -0.18107177 0.19454558
0000d0 ca d8 27 3e c2 b6 45 be 3a 57 f0 3c e0 4c 4f 3e
       0.16391292 -0.19307998 0.029338468 0.20244169
0000e0 e7 49 be bc de ab 36 be c8 c7 9c 3d 2d d2 14 3d
       -0.023228599 -0.17839 0.07655293 0.03633325
0000f0 12 05 c7 bc 5c 41 1f bd 47 ba 2d 3e d4 f9 b4 3d
       -0.02429441 -0.03888069 0.1696559 0.088367134
000100 27 3d ea 3d 32 57 21 be 3c c3 0c 3d c3 9d 85 bd
       0.11437445 -0.15755919 0.034365878 -0.06524231
000110 a0 60 33 be 13 81 03 bd 73 24 ca 3b 74 26 04 bc
       -0.17517328 -0.032105517 0.006168896 -0.008065809
000120 0e 3a 2b be 53 88 11 be 1c e7 d4 bb aa b5 7d bd
       -0.16721365 -0.1421216 -0.006497277 -0.061940826
000130 f3 ef 4f 3e 9b 46 63 3d ec d9 52 3e 16 0d 21 3e
       0.20306377 0.055487256 0.20590943 0.15727648
000140 83 b3 1a 3e a8 fa 06 3e 4d cf 77 bd 98 37 5c 3d
       0.15107541 0.13181555 -0.06050043 0.053763956
000150 ac ed 8a 3d 33 63 57 3e 25 d2 74 ba f8 56 bc 3d
       0.067836136 0.21033935 -0.00093391753 0.091962755
000160 3b 7b 59 bc 61 7d 25 3d f2 8b 01 3e a6 41 28 3e
       -0.013274009 0.040402774 0.12651041 0.16431293
000170 6c 6f 29 3e b1 0b 1d 3d c3 dd 1f 3d 12 ce 37 3e
       0.1654641 0.038341228 0.039029848 0.17949703
000180 77 20 4f be 08 bc 58 bc c9 ef d8 3c 59 a8 5b be
       -0.20227228 -0.013228424 0.026481526 -0.21450938
000190 02 11 1e 3e 7f b5 06 3e 70 6d 8a bd 0e 39 34 bd
       0.15436175 0.13155173 -0.06759155 -0.043999724
0001a0 65 00 45 be 6d 8e 04 3e 35 e4 2f 3d e9 33 b1 3c
       -0.19238432 0.12944956 0.042942245 0.021631198
0001b0 a4 8a 35 3e 76 57 e8 bc 90 1f d0 3d 8c 1f b2 3d
       0.17728668 -0.028362017 0.1016227 0.08697423
0001c0 3c 2a ba bd 55 a3 37 3c 45 5e 51 3e 6d df bc 3d
       -0.09090087 0.011208375 0.20446117 0.092223026
0001d0 33 cf f9 3d 42 1f 55 be 60 6f 09 3c 7f ca e6 3d
       0.12197723 -0.20812705 0.00838837 0.11269092
0001e0 86 2e e6 3d e3 3b f3 b8 38 05 b4 3d 3b f6 8d 3c
       0.112393424 -0.00011598298 0.08790058 0.017329326
0001f0 cd b8 1b be 74 88 2d be 81 fe 18 3d 38 4c d1 bd
       -0.15207215 -0.16946584 0.03735209 -0.10219616
000200 06 40 d0 3d 5a ef 60 3d 9b b7 09 3e 0a 85 b6 bd
       0.101684615 0.054915763 0.13448946 -0.08912094
000210 a2 c5 da bd ae f4 eb 3d bb d0 b3 3d 21 e2 c5 3d
       -0.10682227 0.11521278 0.087800466 0.09662271
000220 76 17 47 3e 0b 76 4c be f9 64 ee 3d 98 42 ae 3d
       0.19442543 -0.19966905 0.11640353 0.085087955
000230 93 ba 27 be 34 f7 37 3e 82 41 1e bd 99 d9 46 3e
       -0.16379766 0.17965394 -0.038636692 0.19418944
000240 0d 6a e8 bd 73 0a 49 3e 5a 29 42 3e f5 88 dc ba
       -0.113483526 0.19632892 0.18961087 -0.0016825484
000250 dd 94 45 3e 03 ec df bd fb 25 17 3e ab 7b 12 3e
       0.19295068 -0.109336875 0.14760582 0.14304988
000260 b6 b6 5d 3e 1d ac a5 3d 7a 36 a9 3d 23 93 5e be
       0.2165173 0.08089469 0.08262344 -0.21735816
000270 61 9c 7e 3d 4a c0 b9 3d d5 5a 2e be 58 e0 b4 3d
       0.062160853 0.09069879 -0.17026837 0.08831853
000280 76 7d f3 bd cb 7b 02 3d bb 0d 7a 3b a5 1c 31 3e
       -0.11889164 0.03185634 0.0038155157 0.17296083
000290 3e 6f 2a 3e 96 cc ac 3d 36 0d 0e 3e 6f 07 c5 bb
       0.16643998 0.08437459 0.13872227 -0.006012849
0002a0 4a fd 48 3e d6 24 2d be 7d 9c 40 3e ce 28 2a be
       0.19627872 -0.16908583 0.18809696 -0.16617128
0002b0 cb 80 2c 3e 2a f0 ab bd 9c d3 2d be 74 65 8a 3d
       0.16846006 -0.08395417 -0.16975254 0.06757632
0002c0 43 0f ec 3d 42 1a 34 3e 43 07 38 3e 4b 85 e1 bd
       0.115263484 0.17588142 0.1797152 -0.11011752
0002d0 f2 6b 3c 3e da e5 4c be f0 62 33 3e b3 34 fb bc
       0.18400553 -0.20009556 0.1751821 -0.030664777
0002e0 ee 59 be 3c 99 3e d3 3d b2 6e 7c 3c 0d 0f 4f be
       0.023236241 0.10314674 0.015407251 -0.20220585
0002f0 68 e9 26 be b5 b8 7a bb af 54 e4 3d b9 2e 57 3e
       -0.16299975 -0.0038257067 0.111489646 0.21013917
000300 4f db ea 3d 33 f1 5d bd 07 30 4d be 6b 80 1e 3e
       0.11467611 -0.054185104 -0.20037852 0.15478675
000310 09 80 43 be 25 aa 9d 3c 34 1b ee 3d 4e 9e 22 be
       -0.1909181 0.01924617 0.11626282 -0.15880701

conv1.bias f4 [8]
000000 96 9f 9e 3d 0a ef 07 3d c1 a0 36 be 9c 91 86 3c
       0.07745282 0.03318695 -0.1783476 0.016426854
000010 66 e0 b3 38 29 b5 ce bc f8 70 1d be 70 0f cd 3d
       8.5771826e-05 -0.025232868 -0.15375125 0.1001271

conv2.weight f4 [16, 8, 5, 5]
000000 7e a4 97 3c 11 7b 47 3d 74 ad e7 3c 29 a6 2f 3d
       0.018511053 0.04870135 0.028280951 0.042883072
000010 1a ae 42 bb 2d e4 4d bd 1f 91 d9 bc 2d 50 09 3d
       -0.0029705823 -0.050266434 -0.026558457 0.033523727
000020 d4 95 b1 3d f7 ce 29 3d b6 fa 55 bd 23 85 50 3c
       0.086711556 0.041457143 -0.05224105 0.012727055
000030 89 f8 04 bc 07 eb 71 3c fe 9d 02 bd c6 0b ef ba
       -0.008115896 0.014765508 -0.031888954 -0.0018237762
000040 da 03 36 3d 78 51 8c 3c 01 c1 04 bd a0 88 17 bd
       0.044437267 0.017128691 -0.032410625 -0.03699553
000050 89 24 73 bb 7d c2 27 bd 78 d8 b8 3c 19 c1 d5 3c
       -0.0037100634 -0.040956963 0.022564158 0.026093053
000060 df 79 57 3c 6b 63 41 3d ed 5c dc 3b 85 18 12 3d
       0.013151615 0.047213953 0.006724945 0.035667915
000070 2b 8e 4e 3c 84 31 40 bb e8 6d 0f bd b0 5f 1f 3d
       0.012607138 -0.0029326389 -0.035016924 0.038909614
000080 b2 af 27 3c de 72 a6 3d 65 81 83 bc 6a 08 8e 3d
       0.01023476 0.08127378 -0.016052911 0.069351986
000090 01 6c 97 3d 01 e3 a8 3d d2 e8 35 3d f2 cf 55 bc
       0.07393647 0.082464226 0.044411488 -0.013050066
0000a0 bf 9b 80 3d 25 b3 3b bc cd 60 f2 3c ae 63 46 bd
       0.06279706 -0.011456286 0.029587174 -0.048434906
0000b0 be b5 35 bd 49 c9 92 3d e2 65 b5 3c a3 f2 9b 3d
       -0.044362776 0.07167298 0.022143308 0.07614639
0000c0 7d 37 98 3d b7 0c a4 3d 78 c7 5d bb 3d c6 49 3c
       0.074324585 0.08010238 -0.0033840816 0.01231533
0000d0 38 b2 af 3c b1 a6 53 3d a3 6e 43 bd 33 03 17 bd
       0.021447286 0.05167264 -0.047712933 -0.036868285
0000e0 56 18 64 3d 2a 14 bf 3c dd f8 12 3d c4 36 d7 3c
       0.05568727 0.023325045 0.035881866 0.026271231
0000f0 7a 14 98 3d f6 7c a1 3c aa 8a 34 3d 99 e2 c2 ba
       0.074257806 0.019712906 0.044077553 -0.0014868557
000100 eb ad 18 3c d2 ad 24 3d 94 dc 8e 3d 26 29 3c bd
       0.009318809 0.04020483 0.06975666 -0.04593768
000110 2f cd 0c bc 60 f0 9e 3d e0 68 b3 bc b4 14 3b ba
       -0.008593841 0.07760692 -0.021900594 -0.0007136569
000120 ac 64 f6 3c 11 d1 46 bd 71 77 9c 3d bf 09 01 3c
       0.030077301 -0.048539225 0.07639969 0.007875859
000130 a1 a7 34 3d 12 e9 0c 3d 71 9e 97 bc 0e ac 8d 3c
       0.044105176 0.03440196 -0.018508168 0.017293956
000140 77 6d b7 ba 0c 2e f4 3c 88 3d e7 bc 04 19 43 bc
       -0.0013994415 0.029807113 -0.028227583 -0.01190782
000150 27 a2 87 bc 7d ba 51 bd df f6 76 3d 64 fe db 3c
       -0.016556812 -0.05120324 0.06029403 0.026854701
000160 d5 77 13 bd c8 ec dc bc 93 04 7b bc 16 c9 67 3d
       -0.036002953 -0.026968375 -0.015320915 0.056588255
000170 07 5d bc 3c 04 fa 14 bd 94 4a 30 bd 23 c0 a0 bb
       0.022993578 -0.036371246 -0.043039873 -0.004905717
000180 2f 20 3f bd 89 93 0c 3d 97 c7 12 bd 00 e8 9a bb
       -0.046661552 0.034320388 -0.035834875 -0.0047273636
000190 cd bd 16 3c d2 06 0f 3c d6 13 87 bc 45 6d 95 bb
       0.0092005255 0.008729653 -0.01648895 -0.004560145
0001a0 90 15 29 bd 57 23 8d 3d b3 20 b3 3d 22 e1 2d 3b
       -0.04128033 0.06891506 0.08746471 0.0026531895
0001b0 1a b8 1c 3d dc 18 a2 3a 0c 99 dc bb 33 67 03 bd
       0.03826151 0.0012367028 -0.006732112 -0.03208084
0001c0 72 6a bf bb 7f ab 09 3d 21 78 57 3d 95 f6 9e 3d
       -0.0058415467 0.033610817 0.0526048 0.077618755
0001d0 ec 16 d1 ba eb df 03 bd 23 a9 b0 bc 78 53 9a 3d
       -0.0015952266 -0.032195967 -0.021565026 0.07535452
0001e0 a0 f7 35 3d 39 f5 75 bc 47 43 89 3d c6 55 bc 3c
       0.044425607 -0.015012079 0.06702285 0.022990119
0001f0 b1 a8 47 3d 11 60 7f 3d 87 6d 12 bd b1 bf 4d bd
       0.04874486 0.062347475 -0.035748985 -0.05023164
000200 51 93 90 3d 16 8e 1c 3d 7b d0 6a 3c ac 52 af 3d
       0.070593484 0.03822144 0.014331932 0.0856069
000210 99 14 e8 3c cd 74 df 3b 9b 48 10 bd 01 e6 a6 3c
       0.028330134 0.0068193437 -0.035225492 0.020373346
000220 ba de 1b bd 0f c2 43 bc b5 7e 38 bd 2b af 2c bd
       -0.038054205 -0.011948123 -0.045042712 -0.04215924
000230 5c 12 55 bd f9 c9 33 bd 5e da 89 bb 12 10 c1 bb
       -0.052019462 -0.043893788 -0.0042069396 -0.0058918083
000240 28 17 3e bd 0a 32 9e 3d 97 45 4d 3d 2f 01 54 3d
       -0.046408802 0.07724388 0.050115194 0.05175894
000250 1a 79 8c 3d 21 22 a3 bc 95 60 45 bd eb dc 30 3d
       0.06859036 -0.019913735 -0.04818781 0.043179434
000260 b9 a2 91 3c 14 09 9a bc 35 08 41 3b 8f da ec bc
       0.017777788 -0.018803157 0.0029454355 -0.02891281
000270 f1 8d a0 3c d4 0a 5d bc 71 3d 53 bd ef aa 4a 3c
       0.019598933 -0.013491351 -0.051572267 0.012369855
000280 aa bc c6 bb c2 fc 43 3d 25 db 77 3c 13 64 3f bd
       -0.006064971 0.04784847 0.015127932 -0.046726298
000290 7c a2 27 bd 3e cb 55 bc 88 5b 67 3d 1b 3c b0 3d
       -0.04092644 -0.013048945 0.056483775 0.08605214
0002a0 76 e9 a9 bc 50 db 86 3d b0 6c a6 bc dd 00 a1 3d
       -0.020741206 0.06584799 -0.020315498 0.07861493
0002b0 70 5d 7d 3d 49 ee 53 3d 43 d3 52 bd d2 b3 a4 3d
       0.061856687 0.05174092 -0.051471006 0.080421105
0002c0 7e a6 0d bd 8e c1 96 3d b6 37 a0 3d 7f 87 5b 3d
       -0.034582607 0.073611364 0.07823126 0.053596016
0002d0 d0 41 d0 3c 2e 10 ac bc 61 7f 78 3d d5 70 67 3d
       0.025422007 -0.021003809 0.060668353 0.05650409
0002e0 a6 c8 9f 3d 92 cc 8c bc 4f 7b 00 bd 92 e2 f5 3c
       0.078019425 -0.01718739 -0.031367596 0.030015264
0002f0 e1 99 9b 3d c1 1d 5a 3c 5b 6b d3 bc 58 f4 27 bd
       0.075977094 0.013312758 -0.025808027 -0.04100451
000300 87 15 6a 3d 8f 1b 62 3c c0 f4 f1 3c 4b 90 90 bc
       0.057149436 0.013800516 0.029535651 -0.01764693
000310 cc 56 71 3d 59 b1 0d bd 5e 5e fe 3c 95 b3 05 3d
       0.058920667 -0.03459296 0.031050857 0.032641966
000320 6d bf fd 3c 55 e3 fa 3c d7 b5 fc b9 fc bd 16 3d
       0.030975068 0.030625978 -0.00048200667 0.036802277
000330 20 76 dc bc 24 d4 25 3d 25 c7 46 3d 0d 3d da 3c
       -0.026911795 0.040485516 0.048529763 0.02664044
000340 b7 39 52 3d 4f 1a df 3c b0 d9 79 3d db 4b 31 3b
       0.051324572 0.027234225 0.06099862 0.002705327
000350 da c5 0b bc 54 90 58 3d 6c f7 91 bc 57 63 18 3d
       -0.008531058 0.052872017 -0.017818175 0.037204113
000360 61 bd b5 bc d7 3e 6e 3a fa e0 55 bd 97 da 24 bc
       -0.02218503 0.00090883434 -0.052216507 -0.0100618815
000370 ea 26 52 3b 3d cf 46 3d f5 2c 25 3c ab 62 1e 3d
       0.0032066652 0.04853748 0.010081519 0.038668316
000380 80 cc d8 bc 05 4b 54 bc 7e d3 5f 3d bb 6e 9a 3c
       -0.0264647 -0.012957339 0.054645054 0.018851629
000390 35 7c 4c 3d 12 a7 3e 3d 4b 69 06 3c 41 aa cc 3c
       0.04992314 0.04654605 0.008203815 0.024983527
0003a0 4a eb 7a 3d 23 3f 4d 3d 29 22 99 3d 3d ea 24 bd
       0.061259545 0.05010904 0.07477219 -0.04026245
0003b0 36 d4 a7 3d 3d f6 c1 3c 39 cb 1e 3c 97 01 9c 3c
       0.08194773 0.023676986 0.009692007 0.019043727
0003c0 2d da b6 3c f0 49 63 3d 66 b2 87 3d 51 31 82 3d
       0.022320831 0.055490434 0.06625824 0.063570626
0003d0 09 7a 7a 3d 1f eb 36 bd 7c 52 46 bd 69 31 fd 3c
       0.061151538 -0.044657823 -0.048418507 0.03090735
0003e0 d1 2b c7 3c 93 01 0b 3d 8f ae 26 3d ca 37 a6 3d
       0.024312885 0.03393705 0.040693816 0.0811611
0003f0 97 fd 3b 3d a1 1a 2d 3d c0 5b 86 bc 0a 7b 02 3d
       0.04589614 0.042261723 -0.016401172 0.03185562

conv2.bias f4 [16]
000000 2e 62 8f 3d 88 2d af bb 7a aa 96 3c 54 c8 42 bc
       0.07001148 -0.005346004 0.018391836 -0.011888582
000010 fa 26 04 3c c7 42 e9 bc c3 7a 8b bc 5a c7 b0 b9
       0.008065933 -0.028474225 -0.01702631 -0.00033717864
000020 34 c5 19 3c 53 ee f5 bc 62 67 44 bd 31 d9 90 3d
       0.009385396 -0.030020868 -0.047950156 0.07072676
000030 77 a3 bf 3c 9e 6e f4 3b 2f ab 90 3d 41 3a 25 3d
       0.023393376 0.0074594757 0.07063901 0.04033876

fc1.weight f4 [128, 784]
000000 fb 3a 5b 3c 0c 9c 94 ba 36 ed 65 bc 0a 5c 3e 3c
       0.013380761 -0.001133801 -0.014033606 0.0116186235
000010 d5 16 9b 3c 05 7f 29 3d 93 f9 04 3d 4e 24 c7 3c
       0.018931786 0.0413809 0.032464575 0.024309304
000020 2a 1b 12 3d 26 55 21 3d d0 5f 14 3d 6a 46 b5 3c
       0.035670437 0.039387845 0.036224186 0.022128303
000030 b5 d4 5a 3d dc 3a 5b 3d e4 1b 03 3c b9 20 bb 3b
       0.05342551 0.05352293 0.008002255 0.005710688
000040 19 70 8b bc c1 f4 b9 3c a8 fd 2d 3d 90 0a cd bb
       -0.017021226 0.022699716 0.042478234 -0.0062573627
000050 a9 78 26 3d 57 77 58 bc 07 a8 12 3d f8 a9 b3 3c
       0.040642414 -0.013212047 0.035804775 0.021931633
000060 96 ec bd 3c 30 96 3a 3d f8 a4 84 3c cf 62 45 3d
       0.023184102 0.045553386 0.016191944 0.048189934
000070 11 07 5c bc 0d f0 c1 3c 99 a8 8a 3c 25 d7 43 3d
       -0.013429419 0.023674035 0.016926097 0.0478126
000080 52 00 82 bb a2 91 3b 3d c0 48 a3 3c c9 30 db bb
       -0.0039673233 0.045793183 0.01993215 -0.0066891653
000090 6f 93 e9 3c b9 f6 90 3c aa cf 36 3d ed f6 b0 3c
       0.028512685 0.017695772 0.044631638 0.021602118
0000a0 ee 73 1f bc 23 27 db 3c bb 4e ea 3c b8 24 0e bb
       -0.00973223 0.02675206 0.028601995 -0.0021689367
0000b0 7c 25 e9 3c 41 19 e2 3c a6 05 88 bc 04 b9 bc 3c
       0.028460257 0.027599933 -0.016604256 0.023037441
0000c0 da 42 10 3d 56 b2 99 3c f5 dd f8 bb be ea 51 3d
       0.035220005 0.018761795 -0.0075948187 0.05124926
0000d0 91 73 92 3b 94 b3 54 3d 7a e7 2c 3d d2 08 19 3c
       0.004469343 0.05192907 0.04221294 0.009340482
0000e0 e7 76 d5 3c dc e5 29 bc 79 a6 24 3d e6 f4 bd 3c
       0.026057674 -0.010369744 0.040197823 0.023188066
0000f0 dd 49 0b 3d c0 70 8a 3c 6c 3e 71 bc 4a 04 5e 3d
       0.03400599 0.016899467 -0.014724355 0.05420331
000100 c2 10 56 3d 5e 57 b5 3c a4 89 c7 3c 37 10 2e 3d
       0.052262075 0.022136386 0.024357624 0.042495932
000110 10 d4 5d 3d 2b 7d 11 3c a1 66 21 3c 40 f1 c9 3b
       0.054157317 0.00887994 0.009851129 0.0061627924
000120 f7 cf 7d 3c 71 29 8e 3c 50 61 1b 3d c3 3f 76 bb
       0.015491477 0.017353745 0.0379346 -0.0037574626
000130 33 e1 05 3d da d6 ee 3b b2 f1 dc 3b 50 3f 3d 3d
       0.03268547 0.007288796 0.0067426795 0.046202958
000140 81 6f e0 3c 41 cb 55 3c f5 9d 1a 3b ca 05 d8 3c
       0.02739692 0.013048948 0.0023592685 0.026369948
000150 be e4 00 3b b2 8a a7 3c b9 21 71 bc 5b 52 b7 3b
       0.001966759 0.020451877 -0.014717513 0.0055945343
000160 9d f8 61 bc cf 0b 85 3c 0b 9a a5 3c f8 12 b0 3c
       -0.013792184 0.016240982 0.020215055 0.02149342
000170 f3 85 e1 3c 07 dd 04 3d ce 4b 5b 3b c7 8d bb bb
       0.027529692 0.03243735 0.003346193 -0.0057236883
000180 4a ab ca 3c b0 0c 2d bc 06 59 ba bb 18 df 83 3a
       0.02473988 -0.010562107 -0.005686882 0.0010060994
000190 14 51 0d 3d c0 6a 1a 3d 43 b6 9e 3c 4b 18 2a 3c
       0.03450115 0.03769946 0.019374019 0.010381768
0001a0 87 2d 32 3d 7a da 8e 3c 9b 57 5c 3d c2 24 52 3d
       0.04350045 0.017438162 0.053794485 0.051304586
0001b0 d4 35 fd 3c 6d ab e0 3b 74 30 24 bc a2 33 9e 3c
       0.030909456 0.006856373 -0.010021318 0.01931173
0001c0 49 30 4b bc a8 e7 5a 3d 9c 80 f6 b7 97 c0 d5 3c
       -0.012401649 0.05344358 -2.9385374e-05 0.02609281
0001d0 6c 51 65 3c 48 d5 82 3c f2 fd 5c 3d 1a 64 0d 3d
       0.013996463 0.015970841 0.05395312 0.034519292
0001e0 9e f4 41 3c d2 1b 3a 3d a6 ec 12 3d 29 a8 11 3d
       0.011838106 0.045436688 0.035870217 0.03556076
0001f0 63 f1 55 3d 2b de 8a 3c f2 45 00 bc 17 b3 39 b9
       0.052232157 0.016951641 -0.007829176 -0.00017709691
000200 19 b1 84 bc 96 8d 31 3c ab df 50 bc 73 11 a2 3c
       -0.016197728 0.010836979 -0.012748639 0.019783711
000210 e8 24 5d bc c6 19 a6 3c 7a 2a 64 bc 81 9f 24 3d
       -0.013497569 0.020275962 -0.013926143 0.040191177
000220 94 b4 cf bb a9 6b bc 3c ce 05 94 b9 47 45 24 3d
       -0.0063386653 0.023000555 -0.00028233085 0.04010513
000230 7a e3 b4 3c 14 c8 cc 3c 71 89 16 3d 5a 92 82 bb
       0.022081126 0.024997748 0.036752168 -0.0039847316
000240 d9 ea 0b 3c 9a 1f 4f 3d e5 c7 54 3d c7 2a 69 bb
       0.008539879 0.050567247 0.051948447 -0.0035578476
000250 b0 8a a7 3c 2d c1 da 3c 81 f9 a0 bb 13 4b 40 3d
       0.020451874 0.026703442 -0.0049125557 0.046946596
000260 6e 32 c4 3b 2d b3 16 3d f0 1b 05 3d 8f 3f 27 bc
       0.005987457 0.03679197 0.032497346 -0.010208025
000270 1f cf 8a bc b4 83 e8 3c 5c 10 78 3c 53 27 22 3d
       -0.016944466 0.028383113 0.015140619 0.039588284
000280 c8 ea 01 bb 99 08 43 3d f3 37 21 3d 1e 5b 29 3d
       -0.0019823778 0.04761562 0.039359998 0.04134666
000290 1e 60 57 bc 47 4f 41 3d 55 f3 9d 3c fe 76 85 3c
       -0.013145475 0.047194745 0.019281069 0.016292091
0002a0 7b 54 50 3d 46 b9 37 bc a9 d5 69 bc 08 44 01 bc
       0.050861817 -0.011213606 -0.014272132 -0.007889755
0002b0 af ad 1a 3d d8 cb c1 3b 4a 36 de 3a 40 53 26 bc
       0.037763294 0.0059141926 0.0016953435 -0.010151684
0002c0 09 c1 8d bb 56 dc 81 3c 57 e2 6a 3c 29 2e 3f bc
       -0.00432599 0.015852135 0.01433619 -0.01166872
0002d0 2f 37 90 3c 9f d8 48 bc f8 84 44 3d 95 9d 14 bc
       0.017604439 -0.012258678 0.04797837 -0.009070774
0002e0 bf d4 97 bc 95 62 e5 3c 33 b6 0f 3d 36 03 1a 3c
       -0.018534062 0.02800111 0.035085868 0.00940018
0002f0 bb cd bb 3b 73 eb 4c bb fb 70 93 3c 71 eb ae 3c
       0.005731312 -0.0031268268 0.01799821 0.021352502
000300 65 34 3e 3d 9c 79 b3 bc cb c3 1b 3d 1d f5 ae bc
       0.046436686 -0.021908574 0.03802852 -0.021357113
000310 20 bb 1c 3d 5c 19 d6 bb 9d 78 76 bb 6e cf 0f 3d
       0.038264394 -0.006533785 -0.0037608512 0.03510993
000320 07 e3 5f bb d1 98 2e 3d b5 06 48 3d f4 20 94 3c
       -0.0034162418 0.042626206 0.04883452 0.01808212
000330 5a 91 4e 3d 33 15 05 3d dc 9a 36 3d b7 35 e9 bb
       0.050431587 0.03249092 0.04458128 -0.007116999
000340 0a d0 4b 3a 31 46 06 3d c3 02 66 bc 0c 1b cd 3c
       0.00077748357 0.032781783 -0.014038744 0.025037311
000350 4a 4e f1 3c 6c 59 43 3d 1c 5b 1b 3d 12 ec 79 bc
       0.029456276 0.0476927 0.037928686 -0.015254037
000360 59 9f fe 3c 26 62 04 3d 3c 80 45 3c a0 51 1b 3d
       0.031081842 0.032320164 0.012054499 0.03791964
000370 5d d4 94 bb 11 c4 f9 3b 93 34 09 3b 5c e7 8d bc
       -0.0045419172 0.00762225 0.0020935878 -0.017322235
000380 9d 42 94 39 33 38 cb 3b fd d7 b6 3c eb 8f 06 3b
       0.0002827839 0.006201768 0.022319788 0.002053256
000390 98 b3 f4 bb 6e e3 26 bb 83 89 fd bb 1b 6b 4f 3d
       -0.0074676983 -0.0025465149 -0.00773734 0.050639253
0003a0 3c b2 11 3d b9 7f 89 3c c4 05 81 bc f2 d5 0c bc
       0.03557037 0.016784536 -0.01574982 -0.00859593
0003b0 b6 da c2 bb 06 10 1c 3d 74 1e 53 3d 47 54 07 3d
       -0.0059464825 0.03810122 0.051542714 0.033039358
0003c0 79 a1 d9 3c 4d 54 e6 3c b7 d7 2d 3d 75 1c 53 3c
       0.026566254 0.02811637 0.04244205 0.012885203
0003d0 a4 ea d8 3c 45 e4 41 3d 2f 8f 4f 3d ff a4 f2 3b
       0.026479073 0.047336835 0.05067366 0.007404923
0003e0 81 f3 d7 3c 2d 69 15 3d 1b 13 32 3d 5a 83 61 3d
       0.026361229 0.036477257 0.04347525 0.055056907
0003f0 f7 7d 60 bc 84 3c e2 bb 32 4a 53 3d 07 4e a8 3b
       -0.013701907 -0.0069041867 0.05158443 0.0051362547

fc1.bias f4 [128]
000000 e5 b0 35 3d a6 77 26 39 dd 09 61 3c 9a 67 91 3c
       0.044358153 0.00015875566 0.013735262 0.017749596
000010 de aa a7 3c a3 56 eb bc bf 62 d7 ba 06 ea a5 3b
       0.020467218 -0.028727835 -0.0016432627 0.005063298
000020 fa d1 d5 bc 86 3a 0d bd bd 87 db bc ee e2 52 bc
       -0.026101101 -0.03447964 -0.026798123 -0.012871487
000030 31 3c 23 bd 2f 9c f6 bc ba b7 4a 3c 1d 20 cc bc
       -0.039852325 -0.030103771 0.012372905 -0.024917657
000040 dc 15 a6 bb 12 6e 14 bc ee 17 19 3d 81 a1 a9 39
       -0.005068524 -0.009059446 0.037376337 0.00032354522
000050 7f d0 db 3c 74 9a f5 bc 11 9c 6a 3c ba 13 bd bc
       0.026832817 -0.029980876 0.014319436 -0.023080695
000060 d5 4d 6b 3c 59 fc 39 3d 30 6d 4d 3b 04 36 89 3c
       0.014361818 0.045406673 0.0031345598 0.01674939
000070 ac aa 90 3c b9 d2 dd 3c ba e3 c1 bc 59 d9 bb 3c
       0.017659508 0.02707802 -0.023668159 0.022930788
000080 fb 2e 37 3b 84 39 15 3c 08 a5 d0 bc 2e fe b3 bc
       0.0027951587 0.009107951 -0.025469318 -0.021971788
000090 ac c4 9d bb f7 a8 97 bc 19 2e 51 3c ad 17 29 bc
       -0.004814705 -0.018513186 0.012767338 -0.010320586
0000a0 33 8b 29 3d 4e c8 2b bc 4a 15 df bb 9f 8a e7 bc
       0.041392516 -0.010484768 -0.006807958 -0.028264342
0000b0 e5 8a 02 bd d6 61 0d bd 87 44 5d 3b 83 b6 80 39
       -0.03187074 -0.03451713 0.003376277 0.00024550044
0000c0 a7 df 52 3d 16 5a 77 3c 74 ac 4e 3b 47 07 ef bc
       0.051482823 0.015097162 0.0031535896 -0.029178275
0000d0 6f c8 00 bd 7d 4e 8e 3b 95 f0 aa bc 5a 99 0b 3d
       -0.03144115 0.0043428526 -0.020866672 0.034081794
0000e0 a6 b2 5c bc 55 69 09 bd e2 e0 12 3b c8 d7 f1 3c
       -0.0134703275 -0.033547718 0.0022411873 0.029521838
0000f0 d5 d2 59 3c 56 25 09 3d c0 6b de ba 87 b7 37 3c
       0.013294895 0.033482872 -0.0016969368 0.01121319
000100 d1 b1 08 3c 9f 90 df bc fb db be 3c a6 5e 79 bc
       0.008343176 -0.02729064 0.023298254 -0.01522032
000110 95 e2 bd bc be 7a ae 3c 7b 08 22 bd 37 1d ce bb
       -0.023179332 0.021298762 -0.03955887 -0.006290104
000120 8a 63 15 bc 15 b0 0c bd 05 5d 02 bd 68 49 8a 3c
       -0.00911797 -0.034347612 -0.03182699 0.016880706
000130 5a ba 53 3c ce 82 0a bd 00 4e 5d 3a bf 80 b4 3a
       0.012922848 -0.03381615 0.0008442104 0.001377128
000140 53 70 d9 bb 52 d5 bc bc 40 f4 be 3c 66 fc aa 3c
       -0.0066357045 -0.023050938 0.023309827 0.020872306
000150 97 57 1f 3c 82 3c f8 3c c9 c2 63 bc 85 74 d0 3b
       0.009725473 0.03030229 -0.013901421 0.0063615465
000160 f6 f3 c7 bc d2 3c 4f 3b ef 0a fe ba 50 cf 2e 3d
       -0.024408322 0.0031621945 -0.001938192 0.042678177
000170 b9 8b c6 b9 a2 94 51 bc b4 d5 78 bc bd 52 b5 bc
       -0.00037869604 -0.0127917845 -0.01518767 -0.02213418
000180 b3 dc a7 bc d2 d6 32 3d 72 db 9b bc 18 5a 6e bc
       -0.02049098 0.0436619 -0.019025538 -0.014547847
000190 49 6f 4f 3d fa 2d e4 bc 20 fa e8 3b d0 13 ce bc
       0.05064324 -0.027853955 0.0071098953 -0.025155932
0001a0 9d 2d 6f bc fc 25 5c 3c 2c 46 50 3a e6 51 8a bc
       -0.014598277 0.013436791 0.0007945027 -0.016884755
0001b0 38 8f 84 3c 72 59 93 bc 63 de b9 bc be 5a a5 bc
       0.016181573 -0.017986987 -0.02268905 -0.02018487
0001c0 46 41 19 3c 30 b3 8b 3b 5a ee c2 bb 83 b5 ac bc
       0.009353941 0.004263304 -0.005948824 -0.021082645
0001d0 2e aa d8 ba cc 96 4d 3d fc 86 a7 bc 06 b6 68 bc
       -0.001653021 0.05019264 -0.020450108 -0.014203554
0001e0 22 9d 03 3c 30 42 35 bb 1c b0 0d 3c ae 48 8b bb
       0.008033069 -0.002765786 0.008647945 -0.0042506075
0001f0 47 d1 c9 3c f7 cc fb bc 04 ee ae bc f8 d7 d7 bc
       0.024635924 -0.030737383 -0.02135373 -0.0263481

fc2.weight f4 [10, 128]
000000 b7 62 75 bd 0e 8e b0 3b df 29 29 bd 90 1f 00 bd
       -0.059908595 0.005388028 -0.041299697 -0.0312801
000010 4c e1 b7 bd aa 00 a0 bd d3 b3 a0 bb 39 a6 b3 bd
       -0.08978519 -0.07812627 -0.004904249 -0.08771939
000020 1f f3 90 3d e0 e7 09 bc 5c 0d 05 3d 6d f2 2d bd
       0.07077622 -0.0084171 0.032483444 -0.042467523
000030 ab 79 52 bd 8b 6b b1 bd 43 6e ce 3c a4 b2 47 3c
       -0.051385563 -0.0866309 0.025199061 0.012188587
000040 40 98 67 3b ae 78 05 3d 5a 6c 5b bd 44 12 16 3d
       0.003533855 0.032585792 -0.05357013 0.036638513
000050 ba 8e 15 3c 96 39 a9 3c 40 44 7a 3d 26 32 16 bd
       0.009128267 0.020657342 0.061100245 -0.03666892
000060 24 08 71 3b 12 2a a3 bd d0 ad b0 bd 34 76 b0 bc
       0.0036778534 -0.07967009 -0.08626902 -0.021540739
000070 13 54 a1 bd 3d 80 b4 bd 0c 48 cf bc 2b 45 64 3c
       -0.07877364 -0.08813522 -0.02530291 0.013932507
000080 ad dc b2 bd c6 e4 6a 3d 64 34 da bc ff a1 0f 3d
       -0.08733497 0.05734708 -0.02663631 0.0350666
000090 7b 27 a5 bd 59 aa 69 3d 13 b3 84 3d 82 ed 48 bd
       -0.08064171 0.05704722 0.06479468 -0.04905463
0000a0 fd 7d c0 bb c7 fe ab bd ca 8c 15 bc 36 52 82 3c
       -0.005874394 -0.08398204 -0.009127805 0.015908342
0000b0 2b 48 bc bc c9 da cd bc 16 20 45 bd 19 0e 6f bc
       -0.022983631 -0.025128739 -0.048126303 -0.0145907635
0000c0 09 39 a1 bd c6 fd 44 bd 54 c9 ac bd 0d 60 4a 3d
       -0.07872207 -0.04809358 -0.08436838 0.049408007
0000d0 35 d7 40 3d 84 7e 2d bd 7b f3 98 bd b7 f4 f1 3c
       0.047080237 -0.042356983 -0.07468315 0.029535634
0000e0 60 92 0d 3c 73 f2 8c 3d a6 18 4b bd 9e 10 6b bd
       0.008640856 0.06882181 -0.049584053 -0.057388894
0000f0 18 46 8c 3d d0 2d c1 3c 6a 7a 80 bd 5a 29 e3 3c
       0.06849307 0.023581415 -0.06273349 0.027729679
000100 06 c4 90 bd cd 6c bd bd cd 9c 24 b9 c6 75 16 bd
       -0.070686385 -0.09249268 -0.00015698672 -0.03673341
000110 9c 31 5f bd c0 91 9a 3d d5 f0 4c bc 45 e2 c6 bd
       -0.05449067 0.07547331 -0.012508591 -0.09711126
000120 0a df 95 bd 5c cc 15 bd a3 3f 81 3d 84 89 6d bd
       -0.07317932 -0.036571845 0.06310966 -0.057992473
000130 cc 19 2a bd 2d 7a 72 bd e9 a0 34 bd 92 11 79 bd
       -0.041528508 -0.059198547 -0.04409877 -0.060807772
000140 22 13 de 3c dc 26 0a 3d fb 75 63 bd fc bb b6 3c
       0.027108733 0.033728465 -0.055532437 0.022306435
000150 65 93 bb bd 13 27 9e 3d 11 07 c9 b9 e5 57 3c 3c
       -0.09158973 0.077222966 -0.00038342972 0.011495565
000160 56 c9 ba bd 08 53 2e 3c 36 58 9d 3c 3a d4 87 3d
       -0.09120433 0.010639913 0.019207101 0.06632276
000170 c6 a4 bd bc 0e 6b a8 3c 8b 0e 15 bd b8 dc bf bc
       -0.02314986 0.02055886 -0.036390822 -0.023420677
000180 99 65 39 3d 3f eb d2 3c 10 e9 d3 bc e2 40 ab bd
       0.045262907 0.02574694 -0.025867969 -0.08361985
000190 0b 7d 15 bd 40 10 a8 3c a4 90 82 bc 6a 55 92 bd
       -0.036496203 0.020515561 -0.01593811 -0.07145198
0001a0 91 88 a7 3c 86 07 fa bc ea db 47 3c 58 26 77 bd
       0.020450862 -0.030521166 0.012198428 -0.0603393
0001b0 dc eb c6 bc 47 50 ca 3c a4 5f 86 bd 6f 73 65 bd
       -0.024282388 0.024696482 -0.06561211 -0.05601829
0001c0 69 ce 82 bd 27 02 3b 3c 7b 05 00 bd bc 2e 05 bd
       -0.06387026 0.011414087 -0.031255227 -0.032515272
0001d0 de 1d f9 bc d7 61 1c 3c 7e 79 28 3d fb 67 83 3d
       -0.03040975 0.009544811 0.04113149 0.06416317
0001e0 c2 fd 5a 3d 44 14 bd bc 9a e8 4e 3d f8 c4 81 bc
       0.05346466 -0.023080952 0.050514795 -0.015840992
0001f0 d2 11 9d bd 84 7f a1 bd bb d0 af 3c 2c c1 77 3d
       -0.076694146 -0.0788565 0.021461835 0.060486957
000200 d4 63 5f bd 4b d7 87 bd ff ae 44 bd a7 a1 f6 bc
       -0.054538563 -0.06632861 -0.04801845 -0.030106379
000210 d0 bb 90 bb d1 fd 69 bc 4e e9 8f bd 7d e9 b3 bd
       -0.0044169202 -0.014281706 -0.07026921 -0.08784769
000220 b4 d6 f6 3c c0 6c 5b 3d 58 9f 64 bd d9 34 80 3d
       0.030131675 0.05357051 -0.055816025 0.0626008
000230 16 4e b1 bd 7a ba 1d 3c d8 ea 46 3d b8 14 01 3c
       -0.08657472 0.009626979 0.04856381 0.007878475
000240 bf 74 ad 3d 69 73 92 3d 39 9f c5 bc 4e 71 b9 bd
       0.08469533 0.07150919 -0.024123775 -0.09054814
000250 53 af 4d 3b 1b 7e 8d 3c 17 a9 7b 3c 8f 34 80 3d
       0.003138502 0.017272046 0.015360138 0.06260025
000260 60 2a 16 3d ca db 98 bd 58 20 22 3c 7b a6 b5 3c
       0.036661506 -0.074637964 0.009895407 0.02217411
000270 7e ed a8 3c 5a f4 8c 3d 71 a5 28 bd b5 45 ae 3b
       0.020621058 0.06882544 -0.041173402 0.0053183683
000280 90 69 a4 b9 39 da ab 3d b2 06 78 bd 8e 69 01 3d
       -0.00031359168 0.08391232 -0.06055326 0.031594805
000290 76 78 c8 bb 7c 66 9a 3d ef 7d 69 3d c3 fb d1 3b
       -0.0061178757 0.075390786 0.057004865 0.006408186
0002a0 6c c5 ca bd 8a 71 04 3c da 6e 55 3d 74 34 ad bc
       -0.099009365 0.00808371 0.05210767 -0.021143176
0002b0 b2 2e c5 bc f8 39 ed 3c d6 5a 0e bc c5 2d ca bb
       -0.024070118 0.028958306 -0.008688649 -0.006170007
0002c0 a9 35 7c 3d c9 86 d7 3c ec b2 9e 3d d1 5f 90 3d
       0.06157461 0.026309388 0.077489704 0.070495255
0002d0 f1 af 2f bd c4 de e0 3c 9a d6 69 3d 85 5f 7a bd
       -0.0428924 0.027449973 0.057089426 -0.06112625
0002e0 d2 7f a6 bd 11 82 ad 3d 7c a3 c7 bc f6 3f 29 bd
       -0.081298485 0.08472074 -0.024369948 -0.041320764
0002f0 96 b4 1c 3d d6 7f b0 3c 33 1e 83 3d ab 4d 9d 3c
       0.038258158 0.021545332 0.064022444 0.019202074
000300 9d 8a 40 bd 71 c3 29 bd 86 08 a5 3c 0f 2f 77 bd
       -0.047007192 -0.041446153 0.020145666 -0.060347613
000310 b2 58 83 bd 78 3d 84 3d 7e ff b2 bd 8f 6d 4d 3d
       -0.06413402 0.06457037 -0.087401375 0.05015331
000320 da 01 7a 3d df 81 fa bc 5c c9 bd bd 17 4d 8c 3d
       0.061036922 -0.030579505 -0.09266922 0.06850641
000330 30 8b e8 bc 86 e2 db bb 03 0d a3 3c d4 e3 a0 3c
       -0.028386682 -0.0067103533 0.019903665 0.019639887
000340 ec 5a 9d bd 4b 0c 8f 3d 9f 29 01 3d e3 cd 1e 3c
       -0.076833576 0.069847666 0.031533834 0.009692642
000350 70 d4 bc bd 04 aa 61 bd b1 7a 9c 3d 39 71 d3 bd
       -0.09220207 -0.05509378 0.07640589 -0.1032433
000360 1d 23 ac 3c d1 ae 01 bd da bf 83 3d ff a5 c6 bd
       0.021012837 -0.03166086 0.06433077 -0.0969963
000370 65 c6 14 3d 6d 4c 15 bd 13 cf 95 bd d0 cf fa bc
       0.036322016 -0.03644984 -0.07314887 -0.03061667
000380 1d 09 b3 bd dc bf 93 bd b7 69 0e 3c 18 c5 00 3c
       -0.087419726 -0.07214329 0.008692197 0.007859491
000390 e9 1c 2e 3b de 28 5f bd fd 4a 05 bd 62 17 88 bd
       0.0026567525 -0.054482333 -0.032542218 -0.06645085
0003a0 05 9a 96 3d 10 b2 32 bd e2 44 64 3c 36 d8 ab bd
       0.07353596 -0.043626845 0.013932439 -0.08390848
0003b0 86 3f 6e 3d d1 83 b3 bb 0c 9d 8e bd d9 5e ce bc
       0.05816605 -0.00547836 -0.06963548 -0.025191711
0003c0 a1 8a b5 bb 97 3d 5a 3d 35 71 c7 bd 0e 90 81 bd
       -0.0055402075 0.053281393 -0.097383894 -0.063263044
0003d0 20 ca 20 3c 07 4a 7c bb 0e 73 5f bd 85 1e 6c bd
       0.009813815 -0.0038496272 -0.054553084 -0.057646293
0003e0 a7 12 9f bd 2a 0d 94 bd 1a bb 96 bd fd 8f 17 3c
       -0.077672295 -0.07229073 -0.073599055 0.009250638
0003f0 9a cc 8d 3d fc 00 8b 3d d5 49 8d 3d a2 18 70 bb
       0.0692379 0.06787297 0.06898848 -0.0036635776

fc2.bias f4 [10]
000000 57 c1 43 bd 21 85 01 3d ba f2 32 bd 78 49 22 3c
       -0.047791805 0.031621102 -0.043688513 0.009905212
000010 39 14 b8 bd 15 40 d4 3c 9a 0f 9e 3c 6d 8f 83 bd
       -0.08988232 0.025909463 0.019294549 -0.06423841
000020 55 81 0d 3c f8 cf c7 bd
       0.008636792 -0.09756464
