target_model.pth (torch, 250453 bytes, 10 tensors)

conv1.weight f4 [6, 1, 3, 3]
-0.37216887 -0.0450629 0.3205394 -0.11407562 0.049256157 -0.08875217 -0.25160953 0.06681046
0.2868444 -0.35639665 -0.45270884 -0.07433675 0.3966912 0.19425765 -0.069665134 0.020534877
0.08445195 0.10190903 -0.015651835 0.16384579 -0.17640747 0.012615485 -0.002532525 -0.064175725
-0.08632022 0.21076626 0.115666494 0.13237141 -0.03480362 0.09586529 0.09627964 0.052327164
0.021382667 0.11263877 -0.028261257 0.1365731 -0.1882291 0.18420252 0.36722443 -0.32256347
-0.11205343 -0.0030365812 -0.20079614 -0.35816225 -0.49500445 0.06269806 -0.13653965 0.34302464
-0.16960207 0.33675987 0.26975605 -0.1306432 -0.3458544 -0.43699726
00000000: eb8c bebe e093 38bd be1d a43e 7ba0 e9bd
00000010: d3c0 493d b3c3 b5bd f7d2 80be ecd3 883d
00000020: 45dd 923e 9f79 b6be 74c9 e7be de3d 98bd
00000030: 1c1b cb3e 7aeb 463e 98ac 8ebd c238 a83c
00000040: 25f5 ac3d aeb5 d03d 4738 80bc 31c7 273e
00000050: 29a4 34be 2eb1 4e3c b8f8 25bb 906e 83bd
00000060: a8c8 b0bd 1cd3 573e 8ee2 ec3d 5f8c 073e
00000070: 3e8e 0ebd 0555 c43d 432e c53d 0255 563d
00000080: b42a af3c 28af e63d 2784 e7bc d2d9 0b3e
00000090: 21bf 40be 969f 3c3e d704 bc3e 0a27 a5be
000000a0: 457c e5bd 6101 47bb 819d 4dbe 0b61 b7be
000000b0: 3971 fdbe d767 803d 0dd1 0bbe eda0 af3e
000000c0: 2aac 2dbe ca6b ac3e 771d 8a3e 55c7 05be
000000d0: d413 b1be 1bbe dfbe

conv1.bias f4 [6]
-0.0028009703 -0.093104966 -0.15445283 -0.17402214 -0.15616596 -0.07901863
00000000: 7c90 37bb d1ad bebd e228 1ebe dc32 32be
00000010: f8e9 1fbe 85d4 a1bd

conv2.weight f4 [16, 6, 5, 5]
0.0839982 0.042317707 0.16419218 0.15388063 -0.04961025 0.10373801 0.081788726 0.067925744
-0.15447557 -0.06446032 0.017509585 -0.055850666 -0.021998016 -0.04255107 0.049551893 -0.017399428
-0.0580392 0.03807464 0.041040827 -0.016935835 -0.015847653 0.08599105 0.025026254 -0.03789012
0.07031314 -0.061083775 0.020475917 0.018980678 -0.16123351 -0.23155482 0.098323904 0.06908591
-0.124309644 -0.2939064 -0.18816864 0.04340609 -0.025055619 -0.11517086 -0.025110245 0.07597384
0.1296951 0.0069526304 0.072953865 0.13216986 0.029214935 -0.012561566 -0.0139654055 -0.030237233
0.015845247 -0.18150519 -0.025134081 0.021536764 0.071642295 0.0457995 -0.23435614 0.08500887
0.010485045 0.021165974 -0.10211481 -0.3393555 0.09458041 -0.17431197 -0.22112349 -0.264268
0.0050874474 0.015919212 -0.12781404 -0.07286547 0.002771229 0.023236651 -0.12677442 -0.06607396
0.0842234 -0.063030444 -0.017953185 -0.09957087 -0.029339539 0.0435734 0.13020861 -0.045705102
-0.030307392 0.006790578 0.1146494 -0.040794104 -0.34681022 0.050469905 -0.03527345 -0.11765417
-0.34187305 -0.10246579 0.0052639656 -0.19560932 -0.2325112 -0.0202042 0.13357365 -0.09123303
-0.23958464 0.04126537 0.03757688 0.07506454 -0.026620338 0.054750822 -0.057176948 -0.05352809
-0.041920315 0.07772586 0.095566 0.032613948 -0.12887755 -0.030478034 0.07394801 0.11760367
0.12786214 -0.06445992 0.038255706 -0.0041145086 0.077250026 -0.048915446 -0.07937022 -0.08718288
-0.13027613 -0.007875541 0.035728335 -0.1571885 -0.1506481 -0.08396432 -0.119509466 0.041442536
0.024683956 -0.110848635 -0.0827381 -0.008025975 0.14008152 -0.015933054 -0.17658922 0.054759778
0.15300468 0.114118844 -0.2394202 -0.33462897 0.008781594 -0.07466621 -0.2795446 -0.16035722
0.21551003 0.02262772 -0.18421201 -0.078423865 -0.021791738 0.051385578 0.07828836 0.029369103
-0.03372767 0.033985972 0.0044994927 0.015824728 -0.15890832 -0.12510654 -0.049311098 0.09822434
0.07298708 -0.07755117 -0.2787292 -0.027217394 -0.06678673 0.117574565 0.0473342 -0.25131175
-0.027169231 -0.2235674 0.17290196 0.14591584 -0.13970257 -0.052143507 -0.09848261 -0.00723765
0.020138443 0.14645235 0.11542221 -0.02917587 0.018414155 -0.082928486 0.103008375 0.14779551
0.05328771 -0.18650955 -0.05427617 -0.15470064 -0.014818378 -0.047331452 -0.14888364 -0.04535804
0.13336915 -0.08144772 -0.08138146 -0.06503606 -0.017953442 0.068783924 0.04722008 -0.13793312
0.07736169 0.013911264 -0.0041443794 0.015788773 0.050440207 0.050853014 -0.07700694 -0.029607613
-0.10667891 0.003956856 0.015107008 0.04885544 -0.17287782 -0.101244316 -0.11310263 0.042828094
0.10107245 0.012256625 -0.09925481 -0.09093879 0.119361565 -0.021965703 0.013374898 -0.040953927
-0.20484668 -0.0010235296 0.018708214 -0.0012377015 -0.053327974 0.013031476 0.11765014 -0.019916678
0.025431886 -0.1240435 0.07470564 0.06865051 -0.060680203 -0.13846616 -0.23528206 -0.06274599
-0.035516866 -0.05240891 0.04683913 -0.12510312 -0.13869748 -0.039766133 0.021334974 -0.051199105
-0.0067749033 -0.15394439 -0.28317145 -0.103904136 -0.011412804 0.04588538 -0.080439106 -0.22092265
00000000: 4007 ac3d 5555 2d3d ff21 283e e292 1d3e
00000010: 1e34 4bbd 9874 d43d d980 a73d a71c 8b3d
00000020: d82e 1ebe c603 84bd 4370 8f3c abc3 64bd
00000030: 2f35 b4bc 084a 2ebd edf6 4a3d 3f89 8ebc
00000040: 83ba 6dbd 27f4 1b3d 6d1a 283d 05bd 8abc
00000050: f0d2 81bc 131c b03d dc03 cd3c ac32 1bbd
00000060: 5600 903d fb32 7abd 1cbd a73c 5e7d 9b3c
00000070: 661a 25be b51c 6dbe 0b5e c93d ea7c 8d3d
00000080: 0e96 febd e67a 96be 48af 40be 96ca 313d
00000090: 7141 cdbc b3de ebbd 00b4 cdbc 2c98 9b3d
000000a0: cbce 043e e4d2 e33b d668 953d 8957 073e
000000b0: 2954 ef3c 07cf 4dbc 28cf 64bc 13b4 f7bc
000000c0: e4cd 813c 7fdc 39be fde5 cdbc de6d b03c
000000d0: 32b9 923d 4298 3b3d 0efb 6fbe 2119 ae3d
000000e0: 77c9 2b3c 4464 ad3c 9221 d1bd 01c0 adbe
000000f0: 60b3 c13d d67e 32be 326e 62be 234e 87be
00000100: 9ab4 a63b 0269 823c afe1 02be 7e3a 95bd
00000110: 829d 353b ca5a be3c 27d1 01be c951 87bd
00000120: 517d ac3d 1b16 81bd 8f12 93bc d0eb cbbd
00000130: 7959 f0bc 057a 323d 6855 053e 4635 3bbd
00000140: 3547 f8bc 7f83 de3b 4ecd ea3d b817 27bd
00000150: 1c91 b1be 88b9 4e3d e57a 10bd abf4 f0bd
00000160: fc09 afbe 96d9 d1bd 587d ac3b cf4d 48be
00000170: 6a17 6ebe 4783 a5bc 88c7 083e 62d8 babd
00000180: ad55 75be e005 293d 37ea 193d 70bb 993d
00000190: e512 dabc 6642 603d 6032 6abd 4540 5bbd
000001a0: a3b4 2bbd bc2e 9f3d 1bb8 c33d 3496 053d
000001b0: 7af8 03be 12ad f9bc 0e72 973d 31da f03d
000001c0: 4bee 023e 9003 84bd 04b2 1c3d 00d3 86bb
000001d0: 4335 9e3d 905b 48bd db8c a2bd f08c b2bd
000001e0: 1b67 05be 6a08 01bc e057 123d 06f6 20be
000001f0: 7f43 1abe 7cf5 abbd 61c1 f4bd a6bf 293d
00000200: 0236 ca3c 9c04 e3bd 9872 a9bd 617f 03bc
00000210: 8871 0f3e 0986 82bc ced3 34be ca4b 603d
00000220: 42ad 1c3e 24b7 e93d 922a 75be 7d54 abbe
00000230: ade0 0f3c 99ea 98bd 7820 8fbe af34 24be
00000240: a9ae 5c3e c55d b93c 13a2 3cbe b19c a0bd
00000250: 9684 b2bc af79 523d a655 a03d 7997 f03c
00000260: 0626 0abd e034 0b3d 7b70 933b dca2 813c
00000270: ddb8 22be ee1b 00be 6ffa 49bd d829 c93d
00000280: 407a 953d 26d3 9ebd 98b5 8ebe 03f7 debc
00000290: 7bc7 88bd efca f03d 82e1 413d efab 80be
000002a0: 0292 debc daee 64be 360d 313e f66a 153e
000002b0: 310e 0fbe 6e94 55bd 40b1 c9bd cf29 edbb
000002c0: 60f9 a43c 9bf7 153e 7b62 ec3d 3c02 efbc
000002d0: 48d9 963c 69d6 a9bd 0ef6 d23d b557 173e
000002e0: 3744 5a3d 5cfc 3ebe b050 5ebd d869 1ebe
000002f0: c8c8 72bc a0de 41bd f474 18be 5ac9 39bd
00000300: ec91 083e 10ce a6bd 53ab a6bd a031 85bd
00000310: 1913 93bc 96de 8c3d d869 413d 573e 0dbe
00000320: ce6f 9e3d 12ec 633c 93cd 87bb 7557 813c
00000330: 649a 4e3d 404b 503d d1b5 9dbd aa8b f2bc
00000340: 797a dabd 84a8 813b 6283 773c a41c 483d
00000350: e206 31be 2e59 cfbd 5aa2 e7bd 836c 2f3d
00000360: 13ff ce3d 03d0 483c 1b46 cbbd 1e3e babd
00000370: d673 f43d 6bf1 b3bc 6322 5b3c 4ebf 27bd
00000380: 54c3 51be f427 86ba f841 993c 5f3a a2ba
00000390: 6f6e 5abd f981 553c 8ef2 f03d 4d28 a3bc
000003a0: 8856 d03c 850a febd 45ff 983d a398 8c3d
000003b0: ce8b 78bd 13ca 0dbe c8ed 70be f880 80bd
000003c0: 227a 11bd baaa 56bd 63da 3f3d 081b 00be
000003d0: b606 0ebe d0e1 22bd afc6 ae3c 27b6 51bd
000003e0: 0200 debb 99a3 1dbe d9fb 90be b1cb d4bd
000003f0: c5fc 3abc 4ff2 3b3d 42bd a4bd 8c39 62be

conv2.bias f4 [16]
-0.045326207 -0.028312324 -0.055030625 -0.2335621 -0.052329678 0.04424954 -0.0026157876 0.044070292
0.093908645 -0.017000623 -0.012097614 0.025942544 -0.20995119 -0.061507512 -0.053446017 -0.037735533
00000000: f9a7 39bd 3fef e7bc cb67 61bd e72a 6fbe
00000010: a557 56bd 013f 353d a26d 2bbb 0d83 343d
00000020: 2d53 c03d e444 8bbc 1235 46bc 7585 d43c
00000030: 72fd 56be 4def 7bbd 36ea 5abd 9390 1abd

fc1.weight f4 [120, 400]
0.04353911 0.0021236427 -0.10656829 -0.080993414 -0.014883968 -0.081698366 -0.07938302 -0.023888117
-0.06984947 0.060517576 0.14213605 0.07931958 0.04255928 0.04354751 0.10129951 0.09401035
0.048324816 -0.011640714 -0.057056233 0.0298343 -0.03331608 0.029639015 -0.0329104 -0.017720263
-0.057816688 0.048113048 0.018925428 0.018781826 0.0068056174 0.01338986 -0.012897183 0.054228205
0.060368385 -0.05555184 -0.13909644 -0.06999214 -0.07924206 0.0154110165 -0.001241436 0.01816648
-0.031544067 0.013686511 0.07822024 0.12459134 0.11866074 -0.011469207 0.042023048 -0.00043962363
-0.04707821 -0.020415073 0.020996708 0.028104527 0.071328826 -0.003700748 0.067799404 0.0499449
0.08239348 0.07309917 -0.01558965 -0.03960079 -0.04080887 0.029687343 0.08568974 0.10576412
0.053317666 -0.008984677 0.01901741 0.018457454 -0.0016422371 -0.011374517 -0.014434627 0.1260321
0.10661932 -0.007841713 0.043023188 0.08798073 0.0211087 0.016504342 -0.014312027 0.006921066
-0.08618115 -0.095084384 -0.028410934 0.10310996 0.003647606 0.11307299 0.09683391 0.04407132
-0.025000231 -0.011889528 0.12707214 -0.051855016 -0.12243676 -0.05365272 -0.006895184 -0.11334504
-0.09299141 -0.10199626 -0.022305923 0.007896235 -0.016143292 0.036267485 0.012486815 0.039433252
0.08353717 0.015071064 0.021311246 0.085848086 0.010684978 0.023752844 0.05105582 0.013296256
-0.062123887 -0.0067589954 0.06208313 -0.08473487 -0.081808746 -0.11566295 -0.00066530466 0.06596836
-0.03593669 -0.1959049 -0.017805036 0.05343712 0.102822 -0.004927469 -0.045104746 -0.06021676
-0.06988057 -0.05552461 -0.049544394 -0.1004738 0.0013191298 -0.025496138 0.0064270333 0.061316706
-0.012194637 -0.031610705 0.06151929 -0.035514522 0.06673993 -0.0025103493 -0.037376802 -0.0055678263
-0.09237553 -0.04854708 0.02070496 -0.015168655 0.07811347 -0.05074317 0.03107995 0.060326546
0.032612994 0.03413773 0.0041378657 -0.004175034 0.042555947 -0.02455221 0.026665175 -0.0076611317
-0.1018891 -0.077042036 0.044293966 0.08589488 0.094009385 0.089538984 0.014036543 0.006171344
-0.018694393 0.019139694 -0.022516292 -0.062138505 -0.018699385 -0.05465688 0.026740776 0.029402334
-0.014315794 -0.045042608 5.8868478e-05 0.018782776 0.042044945 0.008954832 0.078405194 0.048801024
0.027505135 -0.079385124 0.0017462894 -0.0012348046 -0.016431961 -0.046486124 -0.12602738 -0.106452174
-0.019762749 0.020518696 -0.073068045 0.04144556 -0.02552012 0.04229694 0.011037707 -0.0049638012
-0.04729172 0.020013597 -0.068871595 -0.057138182 0.023369407 0.02107954 -0.010862853 -0.027706312
-0.009659719 0.017443197 -0.0680576 -0.11308742 -0.029310493 0.09723697 0.07409439 -0.04177417
0.054665048 -0.053352065 -0.037161097 0.008892074 0.007218857 -0.058165893 -0.07531182 -0.038507897
-0.032578863 0.093556516 0.05439825 -0.068288796 -0.068712756 0.031422503 -0.017694307 0.052285448
0.016654229 0.017379757 0.028368829 -0.052076798 -0.05203016 0.046759997 0.04652019 0.0006449905
0.070052065 0.12946403 -0.025507882 -0.09097497 -0.026935285 0.02217039 0.007810107 -0.04861135
-0.0145446025 0.007114654 0.10877575 0.0160907 -0.025526633 -0.044547427 -0.10124568 0.07464747
00000000: 1156 323d d02c 0b3b 7a40 dabd e0df a5bd
00000010: e3db 73bc 7951 a7bd 9193 a2bd 03b1 c3bc
00000020: 3d0d 8fbd 47e1 773d 1d8c 113e 4e72 a23d
00000030: a452 2e3d e05e 323d 1e76 cf3d 8088 c03d
00000040: 3ef0 453d b1b8 3ebc ccb3 69bd 1067 f43c
00000050: 7176 08bd 85cd f23c 0ecd 06bd 162a 91bc
00000060: 31d1 6cbd 3012 453d 8009 9b3c 58dc 993c
00000070: a801 df3b 2561 5b3c b54e 53bc 651e 5e3d
00000080: d744 773d 548a 63bd 4c6f 0ebe 0a58 8fbd
00000090: a949 a2bd 7d7e 7c3c aeb7 a2ba dfd1 943c
000000a0: 5a34 01bd 633d 603c ef31 a03d bf29 ff3d
000000b0: 6704 f33d 57e9 3bbc 5c20 2c3d 497d e6b9
000000c0: 15d5 40bd 833d a7bc 4a01 ac3c 773b e63c
000000d0: d914 923d 4088 72bb 6ada 8a3d 0693 4c3d
000000e0: eabd a83d 05b5 953d bb6b 7fbc 7034 22bd
000000f0: 3427 27bd df32 f33c 1a7e af3d dc9a d83d
00000100: a063 5a3d 7734 13bc 66ca 9b3c 1634 973c
00000110: 5540 d7ba 2f5c 3abc 377f 6cbc 8f0e 013e
00000120: 3b5b da3d 877a 00bc 1539 303d 3e2f b43d
00000130: 27ec ac3c 1d34 873c fe7c 6abc 1cca e23b
00000140: be7f b0bd 9abb c2bd 0cbe e8bc 512b d33d
00000150: ac0c 6f3b d092 e73d db50 c63d 2184 343d
00000160: 49cd ccbc 4bcc 42bc 331f 023e ed65 54bd
00000170: 20c0 fabd f4c2 5bbd fff0 e1bb 7221 e8bd
00000180: 4872 bebd 6ae3 d0bd e9ba b6bc 365f 013c
00000190: f03e 84bc 378d 143d 8095 4c3c c384 213d
000001a0: 8915 ab3d a0ec 763c ec94 ae3c 1fd1 af3d
000001b0: 0c10 2f3c 5395 c23c e81f 513d 8ad8 593c
000001c0: 9e75 7ebd 907a ddbb e14a 7e3d 7a89 adbd
000001d0: 588b a7bd b2e0 ecbd d767 2eba 6b1a 873d
000001e0: 5a32 13bd 4b9b 48be dedb 91bc e2e0 5a3d
000001f0: 5794 d23d 9b76 a1bb c1bf 38bd d9a5 76bd
00000200: 8b1d 8fbd c66d 63bd 10ef 4abd 35c5 cdbd
00000210: a7e6 ac3a 47dd d0bc dd99 d23b 3a27 7b3d
00000220: 04cc 47bc 3a7a 01bd a7fb 7b3d ad77 11bd
00000230: f2ae 883d ac84 24bb 6b18 19bd 5072 b6bb
00000240: 622f bdbd 4ed9 46bd 739d a93c f385 78bc
00000250: f4f9 9f3d 12d8 4fbd 619b fe3c f818 773d
00000260: 3495 053d 01d4 0b3d ef96 873b b9ce 88bb
00000270: 254f 2e3d b721 c9bc ed70 da3c 3b0a fbbb
00000280: 3cab d0bd 37c8 9dbd 976d 353d a8e9 af3d
00000290: fe87 c03d 3760 b73d 87f9 653c fc38 ca3b
000002a0: fc24 99bc d9ca 9c3c 1674 b8bc f284 7ebd
000002b0: 742f 99bc e5df 5fbd 790f db3c 2add f03c
000002c0: cb8c 6abc 997e 38bd 8ce9 7638 56de 993c
000002d0: 5237 2c3d 4ab7 123c e792 a03d 95e3 473d
000002e0: 7352 e13c ab94 a2bd c0e3 e43a 2bd9 a1ba
000002f0: 529c 86bc 3c68 3ebd 520d 01be 9903 dabd
00000300: 7de5 a1bc d316 a83c b3a4 95bd d2c2 293d
00000310: 920f d1bc 8e3f 2d3d 80d7 343c 62a7 a2bb
00000320: f6b4 41bd 8ef3 a33c 8d0c 8dbd ba09 6abd
00000330: 3371 bf3c 00af ac3c 1cfa 31bc 59f8 e2bc
00000340: cc43 1ebc 09e5 8e3c c861 8bbd 619a e7bd
00000350: 8f1c f0bc 2d24 c73d cdbe 973d 641b 2bbd
00000360: 75e8 5f3d b287 5abd 3c36 18bd 10b0 113c
00000370: 298c ec3b 5c3f 6ebd 153d 9abd 75ba 1dbd
00000380: 6a71 05bd 8f9a bf3d b3d0 5e3d ffda 8bbd
00000390: 46b9 8cbd e2b4 003d a7f3 90bc 4429 563d
000003a0: 736e 883c fe5f 8e3c bf65 e83c 7b4e 55bd
000003b0: 941d 55bd 6987 3f3d f48b 3e3d 9414 293a
000003c0: 7577 8f3d 3892 043e e8f5 d0bc 1651 babd
000003d0: 63a7 dcbc ad9e b53c edeb ff3b b21c 47bd
000003e0: 7c4c 6ebc 0b22 e93b d2c5 de3d a5d0 833c
000003f0: 3b1d d1bc 5d77 36bd e559 cfbd c6e0 983d

fc1.bias f4 [120]
-0.07478487 -0.05934142 -0.21640271 -0.1046558 -0.14045788 -0.06806317 -0.10871573 -0.07394278
-0.07765938 -0.046570368 0.06038761 -0.082407564 -0.10086854 -0.09368865 -0.08026643 -0.016981943
-0.12465991 -0.040364318 -0.12959073 -0.22606134 -0.058680013 -0.07299032 -0.15117542 -0.030851401
-0.050222225 -0.05454438 -0.08032178 -0.13573597 -0.12658267 0.0016008758 -0.124630205 -0.14051326
0.0284632 -0.057840172 0.009867004 0.017656924 -0.062475305 -0.13916036 -0.10708005 -0.10654018
-0.15726848 -0.07890424 -0.07896861 -0.17579338 -0.10956024 -0.005766005 -0.15484455 -0.11342651
-0.09925129 -0.19785914 -0.13709347 -0.009543369 -0.19929656 -0.021206826 -0.1800553 -0.10362704
-0.04609348 -0.13353859 -0.1103859 -0.11482586 -0.053990293 -0.06895486 -0.1727267 -0.072119266
-0.11653111 -0.12742579 -0.08875416 -0.0661889 -0.051011678 -0.054889016 -0.04996733 -0.03087347
-0.11305988 -0.07168409 -0.14514934 -0.10952791 -0.09673874 -0.09849382 -0.15972963 -0.13367443
-0.08570099 -0.2174604 -0.20395109 -0.15754369 -0.1622454 -0.09864152 -0.06158959 -0.09638229
-0.0652909 -0.06472383 -0.09420903 -0.06659163 -0.04309675 -0.114664145 -0.10674501 -0.08772963
-0.03820467 -0.008913959 -0.1685317 -0.12366693 -0.11303271 -0.08629903 -0.1268217 -0.081586875
-0.052879956 -0.12289563 -0.14390922 -0.045206662 -0.13332586 -0.15948206 -0.16094393 -0.0631545
0.0028881107 -0.16504778 -0.14903729 -0.057750147 0.055761438 -0.13969426 -0.1104188 -0.053900577
00000000: cf28 99bd fd0f 73bd ac98 5dbe c855 d6bd
00000010: 31d4 0fbe b464 8bbd 5aa6 debd 506f 97bd
00000020: e20b 9fbd 92c0 3ebd 0059 773d 4cc5 a8bd
00000030: 2a94 cebd d6df bfbd ba62 a4bd b71d 8bbc
00000040: b24d ffbd 0e55 25bd 6fb3 04be a07c 67be
00000050: 745a 70bd f37b 95bd bbcd 1abe 14bc fcbc
00000060: d2b5 4dbd ee69 5fbd bf7f a4bd 5ffe 0abe
00000070: e39e 01be 7ad4 d13a 1f3e ffbd b5e2 0fbe
00000080: a82b e93c d1e9 6cbd 37a9 213c 41a5 903c
00000090: 1be6 7fbd 0e80 0ebe c94c dbbd bd31 dabd
000000a0: fd0a 21be 8c98 a1bd 4bba a1bd 2e03 34be
000000b0: 1e61 e0bd c1f0 bcbb 928f 1ebe 284c e8bd
000000c0: 4344 cbbd 969b 4abe 3b62 0cbe ca5b 1cbc
000000d0: 6614 4cbe f0b9 adbc 6b60 38be 6a3a d4bd
000000e0: 84cc 3cbd 57be 08be 0112 e2bd d229 ebbd
000000f0: ed24 5dbd 3538 8dbd 45df 30be 44b3 93bd
00000100: dda7 eebd e87b 02be bec4 b5bd 0c8e 87bd
00000110: 9ff1 50bd 4ed3 60bd 8baa 4cbd 5cea fcbc
00000120: f08b e7bd 1ccf 92bd 07a2 14be 2b50 e0bd
00000130: f61e c6bd 21b7 c9bd 2a90 23be f3e1 08be
00000140: 0084 afbd f0ad 5ebe 8ed8 50be 2253 21be
00000150: a823 26be 9104 cabd 5e45 7cbd 1464 c5bd
00000160: 3cb7 85bd ed8d 84bd aaf0 c0bd 3161 88bd
00000170: 3886 30bd 09d5 eabd 219d dabd 98ab b3bd
00000180: 807c 1cbd db0b 12bc 9393 2cbe 1645 fdbd
00000190: b27d e7bd 8cbd b0bd 8cdd 01be 0517 a7bd
000001a0: a798 58bd b4b0 fbbd f05c 13be 9f2a 39bd
000001b0: 9386 08be 444f 23be 7cce 24be 2657 81bd
000001c0: 7546 3d3b 4902 29be 3b9d 18be 6b8b 6cbd
000001d0: 1b66 643d 030c 0fbe 4023 e2bd dac6 5cbd

fc2.weight f4 [84, 120]
0.103823945 0.014767175 0.2392763 -0.07143887 -0.0430134 0.0892773 -0.00061571604 0.018107528
0.013552058 0.007328677 -0.13531916 -0.0777484 -0.14323834 0.015438367 -0.05679103 0.05308678
0.22650768 0.24826771 0.02998022 0.21219125 0.012013641 -0.122223906 0.006804026 0.17364246
-0.06275217 0.035314016 -0.0084423795 -0.13370444 -0.0365197 -0.012467377 -0.017130012 0.1164749
-0.0060883802 -0.0040112874 -0.07106328 -0.065256454 -0.025322044 -0.07223283 -0.02757586 0.051486414
0.10665018 -0.021260004 0.14275098 0.11121788 0.05397036 0.085568786 0.035482682 0.2214085
0.13269484 -0.017822087 0.023997547 0.043314684 0.09879192 0.23198676 -0.0136876255 -0.08094685
-0.10399614 0.104030594 0.021676578 0.03830695 0.010373234 0.0856749 0.05039899 -0.0164099
0.027815986 -0.0929415 -0.12841924 0.09935607 0.10212335 -0.12499996 -0.04120135 -0.0053903884
0.038698725 0.06818424 0.1532177 -0.05334388 0.059874907 0.004514724 0.15759663 0.15965226
-0.013210993 0.16319263 0.022064691 0.0004417657 0.10969609 0.09662522 -0.07823104 0.029385615
-0.080612235 -0.022748278 -0.07364532 0.10918577 0.3326412 0.08796548 -0.08286033 0.042056266
0.014743045 0.0048926296 0.054161943 0.0155598745 0.027353935 0.034438226 0.22498262 0.013778518
-0.04225245 0.117418766 0.037817642 0.039460197 0.09017704 0.17462374 0.079296425 0.0589036
0.08978224 0.15701587 0.23127924 0.20231657 0.103202105 -0.065357074 0.2376531 -0.076630846
-0.042446416 0.0068627554 0.0017698943 0.08713944 -0.03972303 0.17128982 -0.025751399 0.24018748
-0.075588584 0.06859038 -0.020613179 0.13732271 -0.027756484 0.2048969 0.065254174 0.08290553
0.1013211 -0.13070485 0.11902543 0.05200137 0.050497267 -0.0040920014 -0.09605704 0.10927685
-0.135394 0.010374578 0.023123186 -0.10359371 -0.032265462 -0.064375356 0.052426234 0.035313528
0.074649796 -0.08328847 0.09307859 0.09614662 -0.017507857 0.038237754 0.13348652 0.016034232
-0.11079985 0.07405052 0.087854974 0.19711871 0.03157205 0.062154513 0.07472176 0.062400434
0.13364783 -0.16910568 0.078233786 -0.0033491848 0.028312957 0.058252648 0.002534343 0.071446866
0.16509964 0.044423357 -0.03845484 0.046919007 -0.071579225 0.05449551 0.04306846 0.0013411223
0.22025548 -0.16021438 0.1570453 -0.019136332 -0.1081689 -0.12593473 -0.10750149 0.20724422
-0.11063238 -0.12988019 -0.047522534 -0.12684041 -0.01916443 0.010888806 0.035918355 0.06681582
0.04906523 0.024628257 -0.06986108 -0.017864298 -0.120025165 -0.031357303 0.06776768 0.13862127
0.12675866 0.07369977 0.19510765 0.101778045 0.13396697 0.24533203 -0.07418759 0.017743675
0.013703047 0.0137294475 -0.048022527 -0.0032732254 -0.053562358 -0.13196734 0.16489878 -0.0056168046
-0.004854677 0.012466925 0.0134421 -0.07322591 0.007701104 0.061607853 0.027374879 0.09961511
-0.026097234 0.026828535 0.033272613 0.021974083 0.089242935 -0.09093994 -0.13787298 0.0221455
0.08405547 0.030805813 0.055896763 -0.085937135 0.15070172 -0.05572349 0.17498408 -0.049741864
0.00072354113 -0.06871281 -0.06996265 0.047088712 -0.04434528 -0.11309471 0.025593212 -0.22733702
00000000: a6a1 d43d 05f2 713c d904 753e 8b4e 92bd
00000010: d22e 30bd 04d7 b63d 0168 21ba 3d56 943c
00000020: 7309 5e3c 6625 f03b 1b91 0abe 8e3a 9fbd
00000030: 12ad 12be 34f1 7c3c b69d 68bd 8671 593d
00000040: a1f1 673e e439 7e3e 1499 f53c aa48 593e
00000050: ddd4 443c 8750 fabd 4ff4 de3b 54cf 313e
00000060: 3684 80bd 6ea5 103d e851 0abc d1e9 08be
00000070: ae95 15bd f843 4cbc 3d54 8cbc 648a ee3d
00000080: 0981 c7bb 1e71 83bb a089 91bd 2da5 85bd
00000090: 2d70 cfbc ceee 93bd c5e6 e1bc 6be3 523d
000000a0: 696b da3d 7629 aebc 502d 123e 33c6 e33d
000000b0: 0610 5d3d b03e af3d 4a56 113d e9b8 623e
000000c0: 28e1 073e a0ff 91bc 8196 c43c bd6a 313d
000000d0: 6b53 ca3d f08d 6d3e 1042 60bc 76c7 a5bd
000000e0: eefb d4bd fe0d d53d 1493 b13c c0e7 1c3d
000000f0: 7ff4 293c 5276 af3d 2c6f 4e3d 0e6e 86bc
00000100: 5ade e33c 1d58 bebd 5580 03be 327b cb3d
00000110: 0c26 d13d fbff ffbd bfc2 28bd dba1 b0bb
00000120: 8e82 1e3d 2ea4 8b3d 1ae5 1c3e 1d7f 5abd
00000130: 643f 753d 40f0 933b 0361 213e e27b 233e
00000140: ec72 58bc f81b 273e 03c1 b43c ca9c e739
00000150: 58a8 e03d 71e3 c53d 9837 a0bd 1aba f03c
00000160: 0718 a5bd 995a babc 5cd3 96bd ca9c df3d
00000170: f34f aa3e 3f27 b43d adb2 a9bd 3143 2c3d
00000180: d08c 713c 5a52 a03b ead8 5d3d d8ee 7e3c
00000190: 5c15 e03c 190f 0d3d d861 663e 4bbf 613c
000001a0: e810 2dbd 4079 f03d ace6 1a3d 04a1 213d
000001b0: bdae b83d 91d0 323e 2a66 a23d e744 713d
000001c0: c0df b73d c5c8 203e 77d4 6c3e 132c 4f3e
000001d0: a05b d33d eed9 85bd 565b 733e a2f0 9cbd
000001e0: 4bdc 2dbd f7e0 e03b ccfb e73a 2a76 b23d
000001f0: 9eb4 22bd 9966 2f3e 99f4 d2bc b5f3 753e
00000200: 30ce 9abd 1d79 8c3d f8dc a8bc 539e 0c3e
00000210: 9161 e3bc 7ed0 513e fba3 853d 60ca a93d
00000220: 7081 cf3d 7ed7 05be 9bc3 f33d 63ff 543d
00000230: 39d6 4e3d 3216 86bb 8eb9 c4bd 8bcc df3d
00000240: baa4 0abe 22fa 293c d66c bd3c f028 d4bd
00000250: ca28 04bd 3ad7 83bd e4bc 563d eba4 103d
00000260: fee1 983d 2593 aabd fd9f be3d 85e8 c43d
00000270: a36c 8fbc 319f 1c3d b1b0 083e 395a 833c
00000280: 08eb e2bd cda7 973d 4fed b33d 7dd9 493e
00000290: b251 013d bb95 7e3d b907 993d 9997 7f3d
000002a0: fada 083e 0a2a 2dbe 0939 a03d ff7d 5bbb
000002b0: 93f0 e73c 549a 6e3d 3817 263b bc52 923d
000002c0: e10f 293e 44f5 353d d382 1dbd 252e 403d
000002d0: 2198 92bd af36 5f3d 8e68 303d 99c8 af3a
000002e0: a78a 613e 3d0f 24be 7cd0 203e ccc3 9cbc
000002f0: a887 ddbd 09f5 00be be29 dcbd d437 543e
00000300: 3b93 e2bd 50ff 04be fda6 42bd 74e2 01be
00000310: b9fe 9cbc f666 323c 201f 133d bcd6 883d
00000320: 9ff8 483d 33c1 c93c 5313 8fbd 2658 92bc
00000330: c1cf f5bd 8470 00bd c8c9 8a3d bcf2 0d3e
00000340: 06cd 013e e8ef 963d 4dca 473e 0271 d03d
00000350: a32e 093e 5238 7b3e aaef 97bd 2f5b 913c
00000360: bf82 603c 7af1 603c 45b3 44bd 9c83 56bb
00000370: 3464 5bbd 7222 07be 3adb 283e 2c0d b8bb
00000380: fb13 9fbb 1342 4c3c 413c 5c3c 77f7 95bd
00000390: 8b59 fc3b 8458 7c3d 4841 e03c 0203 cc3d
000003a0: dec9 d5bc 84c7 db3c dd48 083d fe02 b43c
000003b0: 00c5 b63d b83e babd 932e 0dbe 7b6a b53c
000003c0: 4625 ac3d 795c fc3c 01f4 643d cfff afbd
000003d0: 8d51 1a3e 503e 64bd 072f 333e 20be 4bbd
000003e0: 06ac 3d3a 4db9 8cbd 9448 8fbd 18e0 403d
000003f0: 65a3 35bd 339e e7bd dba8 d13c 09cb 68be

fc2.bias f4 [84]
-0.12664983 0.02088325 -0.026189491 0.08892309 0.095125236 -0.079920284 -0.042446677 -0.16118896
0.10976272 -0.021906972 -0.04818432 -0.110419504 -0.009914186 0.019931482 -0.042478416 0.04648322
0.09015034 -0.07955607 -0.16191052 -0.069675505 -0.14461392 0.02134851 -0.097330436 -0.039616585
0.06625934 -0.10308711 -0.073116735 0.025823085 -0.017590474 -0.044565246 -0.11672864 -0.11144071
0.0034221609 -0.019808859 0.08312995 -0.023682252 0.07226928 -0.002217708 0.027626311 0.011918801
-0.05918451 -0.08131353 -0.19679499 -0.1017788 0.033471014 -0.06277137 0.09819809 0.075210735
-0.054934457 -0.033979066 -0.089816436 -0.0772174 -0.07869606 -0.038003076 -0.066918746 0.03354257
-0.0048436187 -0.12569223 -0.006987042 -0.04806446 -0.005714575 -0.03816311 -0.0032967946 -0.016714064
-0.10329325 -0.091948025 0.15685147 -0.074737184 -0.059338257 0.10061898 -0.03276079 -0.07232034
0.077685036 0.006987272 0.07526994 -0.039650045 0.08641741 -0.002985284 -0.09297781 -0.0065111644
-0.008338994 0.043498334 0.12058261 -0.10300093
00000000: 7eb0 01be 5913 ab3c 588b d6bc 4f1d b63d
00000010: 05d1 c23d 3fad a3bd 91dc 2dbd b80e 25be
00000020: 47cb e03d 4076 b3bc ec5c 45bd 9f23 e2bd
00000030: 1c6f 22bc 5947 a33c d9fd 2dbd 3065 3e3d
00000040: bea0 b83d 4bee a2bd dfcb 25be 08b2 8ebd
00000050: ac15 14be 12e3 ae3c 2e55 c7bd 0045 22bd
00000060: fab2 873d 561f d3bd 3abe 95bd ef8a d33c
00000070: e619 90bc 0c8a 36bd 6d0f efbd 073b e4bd
00000080: 5546 603b 3046 a2bc 0940 aa3d 4801 c2bc
00000090: eb01 943d f756 11bb 9350 e23c 1347 433c
000000a0: 756b 72bd b587 a6bd a084 49be 6771 d0bd
000000b0: e718 093d 478e 80bd 151c c93d 1608 9a3d
000000c0: f402 61bd a22d 0bbd aef1 b7bd 2824 9ebd
000000d0: 662b a1bd 1da9 1bbd b20c 89bd ef63 093d
000000e0: 38b7 9ebb 77b5 00be 8ef3 e4bb 3ddf 44bd
000000f0: 5441 bbbb ec50 1cbd 090f 58bb efeb 88bc
00000100: 698b d3bd 3f4f bcbd ac9d 203e cf0f 99bd
00000110: ac0c 73bd 5311 ce3d 2e30 06bd b01c 94bd
00000120: 5519 9f3d 7cf5 e43b 2027 9a3d 1668 22bd
00000130: 9cfb b03d c1a4 43bb 266b bebd 9b5b d5bb
00000140: 47a0 08bc 4f2b 323d 04f4 f63d 27f2 d2bd

fc3.weight f4 [10, 84]
0.06337052 0.120675586 -0.43958786 -0.16568317 -0.09211989 -0.24335186 -0.4595308 0.16207269
-0.39894632 -0.07623562 -0.54173493 0.08154365 -4.8342856e-05 -0.0020417355 0.16917711 -0.24255402
-0.14759435 0.14440742 0.11881078 0.088366166 -0.45790464 -0.2596952 -0.36158368 -0.26188415
0.08442523 -0.45558038 -0.0024586825 0.13639621 0.10240209 0.056018405 -0.12969537 -0.3243667
-0.31680804 -0.35492733 -0.583215 -0.20157687 -0.46225372 -0.3469376 -0.34961691 -0.3711081
0.10560946 -0.33906186 0.037988976 0.04833553 0.015068669 -0.22720228 -0.11993746 0.11295154
-0.1804187 -0.4600837 0.074074 0.111031584 -0.14161249 -0.20524342 -0.23260412 0.1298382
-0.45458883 -0.06130034 -0.38460383 -0.39402616 -0.32248372 -0.27654856 0.11474066 -0.44398898
-0.39944232 -0.313955 0.11006539 -0.36303815 0.071191646 0.002703992 -0.051021103 -0.3055294
-0.31798857 -0.25451082 -0.39616218 -0.1531194 0.1381413 -0.3317164 -0.12265985 0.08229947
0.12562576 -0.57466084 -0.59723306 -0.49198177 -0.1772259 -0.042210225 -0.27023345 -0.3807
-0.16529918 -0.27547973 0.038253874 -0.36916536 0.06885745 -0.40661502 -0.38530797 -0.22470844
0.009574647 -0.38961497 -0.46500334 0.059520643 0.19805874 -0.23415336 -0.37795717 -0.15892091
0.075825535 0.22110325 0.09128414 -0.39930084 -0.44926494 0.044618428 0.058312774 -0.4607452
-0.3062268 -0.17354211 -0.2273663 -0.48727924 0.13921717 0.026786016 0.08356522 -0.35355434
0.14400236 0.07835002 0.07007082 -0.17327511 -0.007186031 0.13411827 -0.34413305 -0.3854649
-0.4159718 0.14131227 -0.22238906 -0.6657118 0.18931492 -0.011429734 -0.3927616 -0.24499282
-0.1562787 -0.24225146 -0.33023655 -0.19271244 -0.026044495 -0.30503145 -0.5094059 0.20817572
0.1808613 -0.4747377 -0.32811412 0.08893717 -0.35971695 0.02704777 -0.43443635 0.086894795
-0.3175071 -0.10050626 -0.17226066 -0.17263697 -0.4429753 -0.014751519 0.030910475 0.23260437
-0.41947275 0.05371954 -0.105519384 -0.3991423 -0.31129736 0.0449478 -0.20536254 -0.44974607
0.09146451 -0.061465126 0.06115113 0.03984025 0.026994206 0.07236316 0.024201866 0.094250776
0.018439163 0.003212005 -0.028533593 -0.024317276 0.068570845 0.012325828 -0.2629275 -0.3021659
-0.10633959 -0.36692354 0.052251022 -0.4323986 -0.40865615 0.15160915 -0.2948388 -0.3802458
-0.43353242 0.01059095 0.04065714 -0.35069513 -0.39594024 0.069653474 -0.32298267 -0.051580932
-0.055613283 -0.3967582 -0.3883098 0.035904314 -0.3005223 -0.32362142 0.011006404 -0.42916226
-0.08294327 -0.47754773 -0.32834202 0.0030187138 -0.4662791 0.082731776 -0.4371224 -0.2098045
-0.27443492 0.056442797 -0.37743866 -0.42895827 0.06988943 -0.15113196 0.12856762 0.04887822
-0.0027020143 -0.23808454 -0.45517105 -0.3796951 0.068186454 -0.3269797 -0.1948628 -0.050677765
-0.29346776 0.038880587 -0.27440706 -0.23473974 0.036388204 -0.3233228 0.08051268 0.07982543
-0.3109565 -0.14667608 0.05014347 -0.18283284 -0.5211719 -0.35068753 -0.21927693 -0.020797854
0.04046597 0.030126158 -0.3384827 -0.21856031 -0.014967835 0.016951088 0.06670561 0.054954626
00000000: 67c8 813d c324 f73d a911 e1be d9a8 29be
00000010: 5aa9 bcbd 3b31 79be 9f47 ebbe 62f6 253e
00000020: b142 ccbe 6c21 9cbd 24af 0abf 5b00 a73d
00000030: bfc3 4ab8 a3ce 05bb c43c 2d3e 1560 78be
00000040: f922 17be 8adf 133e 1153 f33d 52f9 b43d
00000050: 7a72 eabe c5f6 84be 7f21 b9be ae15 86be
00000060: 23e7 ac3d d541 e9be d921 21bb 73ab 0b3e
00000070: 30b8 d13d 8e73 653d ddce 04be 6413 a6be
00000080: aa34 a2be 09b9 b5be 944d 15bf 2b6a 4ebe
00000090: 85ac ecbe cea1 b1be fd00 b3be e201 bebe
000000a0: c649 d83d 8499 adbe 549a 1b3d 7afb 453d
000000b0: 94e2 763c b7a7 68be c5a1 f5bd 2353 e73d
000000c0: aebf 38be 1790 ebbe 1cb4 973d 8764 e33d
000000d0: dd02 11be 552b 52be c62f 6ebe 4ef4 043e
000000e0: debf e8be 1116 7bbd cbea c4be ccbd c9be
000000f0: 961c a5be c697 8dbe 27fd ea3d 8652 e3be
00000100: b483 ccbe b6be a0be f769 e13d 23e0 b9be
00000110: edcc 913d 7535 313b 81fb 50bd 596e 9cbe
00000120: 66cf a2be 3e4f 82be c5d5 cabe 55cb 1cbe
00000130: ea74 0d3e bbd6 a9be 1635 fbbd a08c a83d
00000140: 0aa4 003e f91c 13bf 44e4 18bf 09e5 fbbe
00000150: b57a 35be a1e4 2cbd 0a5c 8abe 1ceb c2be
00000160: 3044 29be ae0b 8dbe 18b0 1c3d 3e03 bdbe
00000170: 2205 8d3d d82f d0be 1647 c5be f819 66be
00000180: fbde 1c3c 9d7b c7be eb14 eebe ebcb 733d
00000190: e9cf 4a3e e6c5 6fbe 9a83 c1be 2abc 22be
000001a0: 6b4a 9b3d e468 623e 2ef3 ba3d 2971 ccbe
000001b0: 0e06 e6be d0c1 363d 60d9 6e3d cbe6 ebbe
000001c0: c2c9 9cbe 06b5 31be b6d2 68be aa7c f9be
000001d0: f28e 0e3e 596e db3c 3e24 ab3d 1305 b5be
000001e0: 5b75 133e fa75 a03d 4a81 8f3d 086f 31be
000001f0: cc78 ebbb 4d56 093e 3532 b0be a85b c5be
00000200: 41fa d4be 2ab4 103e f5b9 63be 176c 2abf
00000210: c5db 413e c743 3bbc 0c18 c9be 66df 7abe
00000220: 8607 20be c410 78be c414 a9be 6956 45be
00000230: 445b d5bc 152d 9cbe 6d68 02bf 042c 553e
00000240: b433 393e d210 f3be 93fe a7be b124 b63d
00000250: d22c b8be 4993 dd3c 716e debe e6f5 b13d
00000260: 4a90 a2be 3ad6 cdbd 1965 30be bfc7 30be
00000270: a9cd e2be 5bb0 71bc f737 fd3c d72f 6e3e
00000280: 22c5 d6be 0509 5c3d 8c1a d8bd 615c ccbe
00000290: 5e62 9fbe 2f1b 383d 8f4a 52be 1e45 e6be
000002a0: bf51 bb3d dbc2 7bbd 9b79 7a3d 882f 233d
000002b0: f422 dd3c 2333 943d fe42 c63c 8d06 c13d
000002c0: ba0d 973c 8080 523b 48bf e9bc 0635 c7bc
000002d0: df6e 8c3d 45f2 493c 6f9e 86be 7db5 9abe
000002e0: 92c8 d9bd 67dd bbbe 2b05 563d 5963 ddbe
000002f0: 613b d1be 6e3f 1b3e 1cf5 96be 94af c2be
00000300: f6f7 ddbe aa85 2d3c 1a88 263d 508e b3be
00000310: aeb8 cabe 7ba6 8e3d fc5d a5be 8746 53bd
00000320: c1ca 63bd e423 cbbe 8bd0 c6be 6710 133d
00000330: 0fde 99be b5b1 a5be 3454 343c 28bb dbbe
00000340: 29de a9bd 2381 f4be 721c a8be 9dd5 453b
00000350: 22bc eebe 476f a93d 82ce dfbe fed6 56be
00000360: bc82 8cbe 9030 673d a43f c1be 6ba0 dbbe
00000370: 3122 8f3d 56c2 1abe 3ba7 033e 8734 483d
00000380: 4714 31bb 6fcc 73be 2e0c e9be 6567 c2be
00000390: 57a5 8b3d e269 a7be 1d8a 47be 7d93 4fbd
000003a0: 6841 96be 4041 1f3d 157f 8cbe 9d5f 70be
000003b0: cc0b 153d 918a a5be d5e3 a43d 847b a33d
000003c0: b135 9fbe 4132 16be 3d63 4d3d 8838 3bbe
000003d0: 866b 05bf 518d b3be 228a 60be 4360 aabc
000003e0: a5bf 253d 22cb f63c 9b4d adbe 46ce 5fbe
000003f0: a63b 75bc 02dd 8a3c f39c 883d 1a18 613d

fc3.bias f4 [10]
-0.010644286 0.012214076 -0.1282638 -0.07103537 -0.10075945 -0.13313629 -0.2941554 -0.09198349
0.47360393 0.20004605
00000000: 5f65 2ebc 8c1d 483c 9657 03be fe7a 91bd
00000010: f85a cebd e154 08be 899b 96be d761 bcbd
00000020: 377c f23e dfd8 4c3e
